trained/construction/actor.pt (torch, 326212 bytes, 9 tensors)

weight f4 [256, 41]
000000 f2 7d 18 3d d7 88 86 3e f3 51 c4 3e 6c b9 14 3e
       0.037229486 0.26276276 0.38343772 0.14523858
000010 fb 6f f1 3e fc ec 89 3e 1a 77 ac bd 75 74 ed 3d
       0.47155747 0.26938617 -0.08421154 0.11594478
000020 98 31 5a 3c b9 34 c3 3d 99 fa 01 be fe 73 75 be
       0.013317488 0.095315404 -0.12693252 -0.23970029
000030 df 77 f2 be ca 4f 4e 3e 3f b3 9f bd 2a c1 c3 be
       -0.4735708 0.20147625 -0.0779786 -0.3823331
000040 5d 3e 0d 3e 31 ce 65 be 9e 33 4b 3e e8 e9 3f 3e
       0.13793321 -0.22441937 0.19843909 0.18741572
000050 b8 44 2d 3f 8e 5f 85 be da 3e 12 3f 02 3f 46 be
       0.6768298 -0.26049465 0.57127154 -0.19359973
000060 2c 3b 87 be 05 d1 c3 39 b3 54 ef bc fd b1 be be
       -0.26412332 0.0003734903 -0.029215192 -0.3724517
000070 86 af 3d 3e 8b b4 4d be 5b 57 d6 b9 a0 e7 8d be
       0.18523988 -0.20088403 -0.00040882346 -0.27715778
000080 a4 f8 54 3d 27 1c 82 3e 8a c5 36 3e d6 93 23 be
       0.051994935 0.25412104 0.17848793 -0.15974364
000090 cc 76 c1 3d c5 21 94 3e 4b dd 0e 3e ad b3 46 bc
       0.09446487 0.28932014 0.13951604 -0.012127799
0000a0 e4 15 ba 3d 16 6a d7 be b8 5a 10 3f 7c 11 a5 3e
       0.090862066 -0.42073125 0.56388426 0.32239902
0000b0 c6 1e 16 3f 0f df 7e 3d 74 cf 18 3d 5d 08 2b be
       0.58640707 0.062224444 0.037307218 -0.16702409
0000c0 ae 5b 90 3e 1d c7 16 3d 63 cd a0 be e2 a5 29 be
       0.28194946 0.036810983 -0.31406698 -0.16567186
0000d0 a7 98 d9 be 82 f8 97 be 6d eb 69 be 4f c1 77 3e
       -0.42499277 -0.29681784 -0.22843714 0.24194835
0000e0 7b cd b6 3d 59 03 5b 3e 51 04 bd 3e ef c5 e3 3d
       0.08925911 0.21387996 0.36917356 0.11121737
0000f0 a5 0d d4 3d 82 eb ca 3e d3 26 0f be 5b 43 30 3f
       0.10354165 0.39632803 -0.13979654 0.68852776
000100 3c 12 ae bc 95 95 9b be 51 11 8c be 2f fc c3 bd
       -0.02124893 -0.3038756 -0.2735696 -0.095695846
000110 14 86 15 bf 61 e7 19 3e 81 80 00 be 24 0d 48 be
       -0.5840771 0.1502967 -0.1254902 -0.19536263
000120 fa c5 2e bc c6 c9 91 be 0d 04 b3 be 83 4b 9b be
       -0.0106673185 -0.28474253 -0.34964028 -0.30331048
000130 76 12 93 3e 88 5c 54 3e 94 07 94 be 75 24 12 3e
       0.28725022 0.20738423 -0.28912032 0.1427172
000140 79 d2 dc 3c fd 82 02 be d0 6e e5 bd d6 e0 33 be
       0.02695583 -0.1274528 -0.112027764 -0.17566237
000150 5c 8a 61 bd 48 63 08 3f d1 88 a7 3e 37 78 6b 3e
       -0.05506359 0.5327649 0.3272157 0.22995077
000160 05 7e 71 3e 2f 56 b5 3e 12 ff a0 3d 5a f9 32 be
       0.23583229 0.35417315 0.07861151 -0.17477933
000170 39 ce 67 3e 5c 55 3b 3e 18 b3 f9 bd 2c 28 5c be
       0.22637261 0.18294281 -0.121923625 -0.214997
000180 43 5e 8c be 0f 8f 13 3f a9 43 91 bd 7f 33 96 be
       -0.27415666 0.57640165 -0.07092983 -0.29336163
000190 ab 6b 45 3e 3f ba ca 3d 98 80 15 be d9 27 45 be
       0.19279353 0.09898805 -0.14599836 -0.19253482
0001a0 10 c3 e8 bd f8 ea 09 3e da 1b 2f 3e 2b 8c 91 be
       -0.1136533 0.1346854 0.17100468 -0.28427252
0001b0 cc db 25 be 04 d4 46 3e 6f 61 b1 3e eb af d1 be
       -0.16197127 0.19416815 0.34644648 -0.40954527
0001c0 83 7e 8a 3e 28 1e fd bd 2f ad 2d be 97 3b a0 3e
       0.27049646 -0.123592675 -0.16960596 0.31295463
0001d0 c4 fe 8e 3d 77 1d ff bd 71 7d 7f 3e b2 27 3d be
       0.069821864 -0.12456792 0.24950196 -0.18472174
0001e0 63 23 88 bd 19 57 ea bb f2 b3 18 3e e8 c5 15 bf
       -0.066473745 -0.007151496 0.14912394 -0.58505106
0001f0 2d 90 a0 bd e2 dd b8 3e 49 ed 74 bb 18 b9 80 be
       -0.07839999 0.36106783 -0.0037372878 -0.25141215
000200 14 ef 16 bc a5 63 08 3f 9d ed 69 3e 0d bc f7 3d
       -0.009212274 0.53277045 0.22844549 0.12096415
000210 31 cb 91 3d 40 88 2b 3e d4 b2 9e 3e 6b f2 19 3e
       0.07118834 0.16751194 0.3099581 0.15033881
000220 0a d3 98 be 93 f9 5a bd ce 69 9b 3d 5c 7d 8c 3c
       -0.2984851 -0.05346067 0.0758854 0.01714962
000230 6e 9d a5 3d 90 4d cf 3e 10 d4 89 3e 37 53 da 3d
       0.08086668 0.40488863 0.26919603 0.10660403
000240 aa b7 eb 3e 19 10 91 be 93 c0 df 3d 7e 41 16 3e
       0.46038562 -0.28332594 0.109254025 0.14673421
000250 6c 3d 71 3e e4 78 49 be de d8 8c 3e eb a6 89 3e
       0.23558587 -0.19675022 0.27509207 0.2688516
000260 75 5a 96 3d d2 53 0c bf c7 4a dc 3d 7b 45 30 3e
       0.07341472 -0.548154 0.1075645 0.17214005
000270 61 20 8f bd 8b 5b ab be 76 9b b0 3d b3 d5 02 3e
       -0.06988598 -0.3346828 0.08623402 0.12776832
000280 10 fb bf 3d 52 a5 ef bd 7b c0 ee bd c5 90 b4 3e
       0.09374058 -0.11701454 -0.116578065 0.352667
000290 cf 54 9d bb bd ac 9a 3d 4a 6c 9b 3e 91 a6 90 bc
       -0.0048013697 0.075524785 0.30356055 -0.01765755
0002a0 4e 7b 22 be d6 4f 05 3f f6 3e 2c 3e 1c d9 a6 be
       -0.1586735 0.52074945 0.16820893 -0.32587516
0002b0 39 91 0a 3e 18 3e 8f 3e 70 42 e6 bc f6 09 6d 3e
       0.1353196 0.2797706 -0.028107852 0.23148331
0002c0 e4 7c b1 be 64 14 9c bd 35 ce db be 02 0b 00 bd
       -0.34665596 -0.07621077 -0.4293076 -0.031260498
0002d0 09 0b 32 3e 9c 28 59 3e 15 67 04 bd 55 29 91 3e
       0.17387022 0.21206897 -0.03232487 0.28351846
0002e0 5f 19 1f be b3 60 cb 3e 5e a7 06 bf e1 53 52 3d
       -0.15537022 0.39722213 -0.5259913 0.051349524
0002f0 23 dd 1b 3e e5 2d 63 bd 80 bc 2b bf 12 b3 c2 3e
       0.15221076 -0.05546369 -0.67084503 0.38027245
000300 36 ed 01 3f 37 0c 66 bd af 60 7f 3e 57 e9 42 be
       0.5075258 -0.056163993 0.24939226 -0.19034325
000310 ae 86 08 be 3a f1 86 3e fa 1b f7 bd 49 91 ab bd
       -0.13332626 0.26355916 -0.12065883 -0.0837732
000320 dc 62 05 3e a9 02 b2 be 42 00 6c 3d 62 ff 06 3e
       0.13025993 -0.34767655 0.057617433 0.13183358
000330 b2 e1 bd 3c d3 d2 18 3e b8 13 5d be 03 88 0b 3e
       0.023178909 0.14924173 -0.21589553 0.13626103
000340 91 72 7d bd 00 59 9f 3b bc 6c a4 3d 41 c0 7c 3e
       -0.061876837 0.0048629045 0.08028552 0.24682714
000350 87 32 29 bf a9 9d af be 91 a1 49 3e 34 3b 16 bf
       -0.66092724 -0.34299973 0.19690539 -0.58684087
000360 4a f4 4e be da a4 5d be d3 bc 51 3c 0c 99 66 3e
       -0.20210376 -0.21644917 0.012801367 0.2251932
000370 a9 57 1b 3d 8e 42 37 3e 25 6e 1e bd d3 57 4f bd
       0.037925396 0.17896482 -0.03867926 -0.050620865
000380 62 a5 4c bc ed 69 5b be 2e 15 32 3e 6c 9f 1e bf
       -0.012490602 -0.21427126 0.17390892 -0.6196201
000390 19 2e 5f 3d f4 e8 3d be 89 4a c7 bd 81 95 c4 be
       0.05448732 -0.18545896 -0.09731013 -0.38395312
0003a0 3c 7a 2d bd 2e 4f 4a 3e a8 da 75 be 54 a6 fe be
       -0.0423529 0.19756767 -0.24009192 -0.49736273
0003b0 dd ec 13 3d e0 c5 24 be c1 80 34 bd b8 2e 2f bd
       0.036114562 -0.16091108 -0.0440681 -0.042769164
0003c0 98 1a 32 3d 66 b1 19 3d ed 9b 89 3e b3 81 70 bd
       0.043482393 0.037522696 0.26876774 -0.05871744
0003d0 56 f7 a3 bb 25 1c 45 3e 16 63 7e be 36 2e 1b 3e
       -0.00500385 0.19249018 -0.24842486 0.15154347
0003e0 ab 9a ed 3d 38 71 e3 be 4c 33 e0 bd 81 d0 c5 3d
       0.11601766 -0.44422317 -0.10947284 0.096589096
0003f0 dd bd f4 bd fc 2e ce bd 99 28 1b be 3a bf 3c bd
       -0.11950276 -0.10067555 -0.15152206 -0.046080805

bias f4 [256]
000000 fd e0 07 be 88 72 2c be 43 82 a5 bd b8 fa b4 bd
       -0.1326942 -0.16840565 -0.08081486 -0.08836883
000010 b4 08 e0 bc 46 3f b4 bd d5 f4 b3 3b 0b 5a a6 be
       -0.0273479 -0.08801131 0.0054918327 -0.32490572
000020 91 53 4c be 98 e3 b8 be f0 c9 9e be 5c ae e9 bc
       -0.19953753 -0.3611114 -0.3101344 -0.028525524
000030 da de d3 bd ae 2a a1 be 2f dd b2 bd a6 f9 9e be
       -0.1034524 -0.31477875 -0.08733594 -0.31049842
000040 1d 0f f3 be 0f 11 59 be f0 a6 7a be 33 8e 98 be
       -0.47472468 -0.21197914 -0.24477744 -0.2979599
000050 ae ee 48 be 4e a3 13 be 6c ed c4 3d b6 15 45 3d
       -0.19622299 -0.14417765 0.09615597 0.04811641
000060 4c e2 8d be ec 3b f7 3c 64 35 37 be 95 f2 68 be
       -0.27711713 0.03017994 -0.1789146 -0.22748788
000070 ce 78 54 be 3d 31 10 be f9 ad 81 bc f8 10 36 bd
       -0.20749208 -0.14081283 -0.015830027 -0.044449776
000080 36 2f 81 3d 2b bd 72 bd 42 e7 2c bc 6e fc 58 bd
       0.06307833 -0.059262436 -0.010553183 -0.05297511
000090 0a e7 88 3d 08 11 ed bc ec 4a c6 be 8f a0 8b 3c
       0.06684692 -0.028938785 -0.38729036 0.017044334
0000a0 3a a0 78 be 0a 11 96 be f8 9e f8 bd 9c ce 35 be
       -0.24279872 -0.29309875 -0.12139696 -0.17754596
0000b0 e5 d9 27 bd fd 93 80 be 67 50 e9 bd eb 9b 0b be
       -0.040979285 -0.25112906 -0.11392289 -0.13633697
0000c0 1d ad 80 bd 07 b5 9f bd f2 ec 01 bc 87 fd ff 3d
       -0.06283019 -0.077982 -0.007930027 0.124995284
0000d0 a1 a6 b8 be 1f d3 65 be 26 20 42 bd 4b 56 5d bd
       -0.36064628 -0.22443818 -0.04739394 -0.054037374
0000e0 f7 cb 96 be 81 11 d3 be 3e 38 51 be b1 c9 bd bd
       -0.29452488 -0.41224292 -0.20431611 -0.09266985
0000f0 50 5c f5 bd d3 92 ed bd d0 cb 9a 3c e8 41 de bd
       -0.11980498 -0.1160027 0.018896013 -0.10852414
000100 3b 5e 69 be 51 2f 2f be 85 f3 3a bc 32 09 46 be
       -0.22789852 -0.17107894 -0.011410599 -0.19339445
000110 c5 94 be bd e2 24 70 be d4 aa 5d bd 26 bc b4 bd
       -0.09305719 -0.2345157 -0.054117993 -0.08824949
000120 f7 2f 92 be 3a e3 b1 3d 99 89 21 3d e5 2d 97 be
       -0.2855222 0.08685918 0.039437864 -0.29527202
000130 e2 4f fd bd 34 5a d2 bd 49 19 09 bd 1d b5 b6 be
       -0.12368752 -0.10271111 -0.03347138 -0.35685053
000140 08 d0 70 be f5 46 a8 3d 3a b7 ae bd bd ed d5 bc
       -0.23516858 0.08216659 -0.085310414 -0.026114339
000150 19 67 13 be 94 4f 88 3d aa d4 a9 be 37 db 55 be
       -0.14394797 0.06655803 -0.33170062 -0.20884405
000160 73 37 bc bd de 77 4f be e8 6d 17 be 85 3f 9d be
       -0.091902636 -0.2026057 -0.1478802 -0.30712524
000170 c4 a4 ab bc 6d e6 ac bc a3 78 0d be df 72 3b be
       -0.02095259 -0.02110597 -0.1381555 -0.18305539
000180 10 4c 4a be b8 c7 97 be 8c 8a 9d be 23 f6 e9 3c
       -0.19755578 -0.2964456 -0.30769765 0.02855975
000190 6f a7 98 be 1b ad 32 be b0 b1 0d be 07 18 83 be
       -0.29815242 -0.17448847 -0.13837314 -0.2560427
0001a0 60 32 76 bd b2 99 3d be fa 3e 49 be f6 25 12 be
       -0.060106635 -0.18515661 -0.1965293 -0.14272293
0001b0 a6 31 18 be 44 05 8d be c0 a3 8e bd 16 0c 2a be
       -0.1486269 -0.2754308 -0.069648266 -0.16606173
0001c0 20 c8 89 be 58 aa 40 be e8 69 9d be 4d 38 c7 be
       -0.26910496 -0.18814981 -0.30744863 -0.38910142
0001d0 15 79 7e be 61 4f 53 be 2a ad d6 be 1c 9e 12 3c
       -0.24850877 -0.2063575 -0.4192899 0.008948829
0001e0 51 7d 19 be c2 ff 03 be 60 2e 5e be 6e 01 7e be
       -0.1498921 -0.12890533 -0.21697378 -0.24805233
0001f0 2b 64 99 bd 44 c5 14 be a8 47 9f be 90 85 d1 be
       -0.07489809 -0.14528376 -0.31109357 -0.40922213
000200 1f f2 9e be 74 4e 9e bd 4b 35 95 3d 63 9b 05 be
       -0.310441 -0.077298075 0.072855555 -0.13047557
000210 76 8b 9b bd ad 3e 58 be f1 01 1d be 67 fc 0e bc
       -0.075949594 -0.21117659 -0.15332772 -0.00872717
000220 d9 9b 49 be 18 a4 86 be ff 92 c8 bd f2 9f 60 be
       -0.19688357 -0.2629707 -0.09793662 -0.21936014
000230 d3 3e b5 bd e2 2b 40 be aa 42 ab be 5c fe 55 be
       -0.088498734 -0.1876674 -0.33449298 -0.20897812
000240 54 7c 37 be 0c 9d 3d be 09 79 2b be 01 45 db bd
       -0.17918521 -0.1851694 -0.1674539 -0.10706521
000250 13 dc 16 be 55 bd c1 3c 06 3b 70 be 23 b4 76 be
       -0.14732389 0.02364985 -0.23460016 -0.24092154
000260 58 1f e5 bd 14 0f 80 3c 39 ff 95 be 2a ef a4 be
       -0.11187619 0.01563219 -0.29296282 -0.32213718
000270 e2 a4 37 3d e9 91 c7 be 48 f8 31 be 05 f7 d7 bd
       0.04483498 -0.38978508 -0.17379868 -0.10545162
000280 40 91 bc bd 59 8e 70 3d 4b 60 2b bd 52 65 80 be
       -0.09207392 0.058729503 -0.04183988 -0.250773
000290 76 b7 c2 bd 91 58 fe bd 49 a2 88 be 82 97 83 be
       -0.09507649 -0.124192365 -0.26686314 -0.2570153
0002a0 31 ed ca be b8 42 0d be 4c f6 59 be e6 e1 68 be
       -0.39634088 -0.13794982 -0.21285361 -0.22742423
0002b0 34 67 29 be 04 5c 21 3e e2 24 f4 bc b7 13 3d be
       -0.16543275 0.15757757 -0.029802743 -0.18464552
0002c0 23 a7 ed bd 6e 9e 4f be c5 5c 7a bd 0b 31 c5 be
       -0.116041444 -0.2027528 -0.06112363 -0.3851398
0002d0 d8 ec 0e be 4c 77 87 be 4b 03 97 bc 0e da a3 3b
       -0.13957536 -0.26458204 -0.018434187 0.0050003594
0002e0 05 8b e8 bd b1 06 2d be 3d 9d fa bd 0b d3 b1 bd
       -0.11354641 -0.16897084 -0.12237022 -0.086828314
0002f0 56 82 8a be 56 04 7d be b7 9c b5 be 4c 3f ea bd
       -0.27052563 -0.24708685 -0.35471126 -0.11437854
000300 ff 56 02 be 2c 88 31 be f2 12 df bd f7 87 4f be
       -0.12728499 -0.17337102 -0.108922854 -0.2026671
000310 3c 1a 90 bd 5d d1 75 be 10 c4 9f be 72 fc 1a be
       -0.07036254 -0.24005647 -0.3120427 -0.15135363
000320 44 5a 2d be 7b 34 4a be 35 23 a0 be 27 cd 1d be
       -0.16928965 -0.19746582 -0.3127686 -0.1541029
000330 93 db 3b 3c 62 dd 26 be 61 a3 4e be 2f 91 70 be
       0.011465925 -0.16295388 -0.20179512 -0.23492883
000340 bb bf d2 bd 68 76 3e 3b 55 82 c2 be 22 14 c3 be
       -0.10290476 0.0029062275 -0.3799006 -0.38101298
000350 c4 b6 28 be 9e e0 3b be af 08 93 bd 59 b9 de bd
       -0.1647597 -0.18347403 -0.07179391 -0.10875196
000360 ec 3c 3b bc 19 df 33 be 11 0a 11 be c4 b6 d6 be
       -0.011428099 -0.17565574 -0.14163996 -0.41936314
000370 2a 3e 30 be 89 a4 de bd 4a 72 a4 3d 77 e8 9e 3d
       -0.17211214 -0.10871226 0.080296114 0.07759183
000380 c1 c6 86 be da ed 88 be af 13 a4 be 48 6b fd bd
       -0.26323512 -0.26743966 -0.32046267 -0.12373978
000390 f5 82 ed bc 4d 83 b4 be 77 ed a6 be e9 8f 5b bd
       -0.02899311 -0.35256425 -0.32603046 -0.05360404
0003a0 07 81 da bd 7b 86 9d 3c 3d 37 ca bc 68 24 d1 bd
       -0.10669141 0.019229164 -0.024684543 -0.10212022
0003b0 7f 3f 91 be b9 ee 5c be b4 0b 3f be 38 fb f1 bd
       -0.28368756 -0.2157544 -0.18656808 -0.11815494
0003c0 32 e2 cd 3c 6e 75 fc bd 3b 4d 8b bd 16 7d 6c be
       0.025132272 -0.123270854 -0.0680184 -0.23094591
0003d0 fb 8d be be 4a b4 61 be a0 54 ce be d3 99 6f be
       -0.37217698 -0.22041431 -0.4029894 -0.23398523
0003e0 aa 1e 6f be 67 d2 93 bd ec 9a 1f be 39 ac b9 be
       -0.23351541 -0.072178654 -0.15586442 -0.36264208
0003f0 52 00 68 be 14 8a 3e bd 08 7f d9 bd bf d7 35 be
       -0.22656372 -0.0465184 -0.106199324 -0.17758082

weight f4 [256, 256]
000000 12 4a a5 3b d6 a7 94 bd 8e 49 4d 3e f6 71 3c bd
       0.0050442303 -0.07258575 0.2004759 -0.04600712
000010 35 4c 78 3d 59 69 8b 3e 3e e9 22 3d c7 cd 46 3e
       0.06061955 0.2722881 0.03977322 0.19414435
000020 09 89 87 3e c5 b3 9c 3e 51 8e 81 be 16 e6 5e 3d
       0.26471737 0.30605903 -0.2530389 0.054418646
000030 96 fc 7e be 72 4f 7a b8 56 a9 a8 3c fe ee 7b be
       -0.24901041 -5.9678634e-05 0.020588558 -0.24602887
000040 40 9e b2 3e 20 35 90 3e 53 e2 dd 3d 73 a8 73 bd
       0.3488636 0.2816553 0.108341835 -0.059486818
000050 56 39 f7 3c 4a a2 66 3d bb ad 8b 3c 9c 79 4e 3c
       0.030178707 0.056307115 0.017050615 0.012602236
000060 6c 7c 6a 3d 05 df 1e 3e ed bb 3b 3e a3 1a df bd
       0.057247564 0.15514763 0.18333407 -0.108937524
000070 a3 1d af 3c d0 a6 2b 3e 55 e7 01 3e ae 0b 5a 3d
       0.021376437 0.16762853 0.12685902 0.053233795
000080 67 cb 83 bd 2d 77 24 be b2 f1 20 3e 67 c7 0b 3d
       -0.0643528 -0.16061087 0.157172 0.03412571
000090 5c ab 03 3e ab 32 17 be 1e 06 76 3e 3f 8a be 3e
       0.12858337 -0.14765422 0.24025771 0.37214848
0000a0 c5 e9 57 3d e7 f9 20 bd 10 a4 00 be ca d2 a5 bc
       0.052713174 -0.039300825 -0.12562585 -0.020242114
0000b0 d6 a3 69 3d b2 49 c0 3d dd 03 0a 3e 42 d4 9f bd
       0.05704101 0.09389056 0.13478036 -0.07804157
0000c0 cc ac 92 3e 0d 98 21 be 09 9b 83 bd 64 2d 8a 3d
       0.2864746 -0.15780659 -0.06426055 0.06746939
0000d0 e7 b1 5e be 3e 40 17 be c9 ce 76 be f6 26 dd bd
       -0.21747552 -0.147706 -0.2410232 -0.10798447
0000e0 e3 53 e6 bd 32 f1 7b 3c 08 cc 63 3d c2 43 c9 3e
       -0.11246469 0.01537733 0.0556145 0.39309508
0000f0 41 e1 4f bd ab 78 8d 3d c7 9a 90 bd 75 0c 0a 3e
       -0.05075193 0.06907781 -0.070607714 0.13481314
000100 d5 e4 c3 bd e9 ef 58 3e 57 75 06 be a2 a5 c3 3e
       -0.095651306 0.21185268 -0.13130699 0.38212305
000110 38 4c 8e 3d d8 63 0f be 9a 71 b8 3e 2d 82 97 3e
       0.06948131 -0.14002931 0.3602417 0.29591504
000120 90 a1 4a 3e 0e 93 43 3d 5a 39 06 be 7b 6d 95 be
       0.19788194 0.047747664 -0.13107815 -0.2918509
000130 6d f4 bb 3c 5f 97 85 be 43 6d 66 3d 4c b9 32 3d
       0.0229437 -0.2609205 0.056256544 0.043633744
000140 ba bb 50 be 68 bf ec 3c 5d 0d f4 bd 71 22 05 be
       -0.20384112 0.028899863 -0.11916611 -0.1300142
000150 0a 13 b0 3c f2 36 6d 3e 56 d5 5a be 28 b0 89 3d
       0.021493454 0.23165491 -0.21370444 0.06723052
000160 f1 35 3b be ac fb 5e 3d 13 81 48 3d a2 ed a0 3e
       -0.18282296 0.05443923 0.04895122 0.314313
000170 b7 11 54 bd 9a ec 28 3e 37 85 c4 bd 27 54 34 bc
       -0.051774707 0.16496506 -0.09595721 -0.011006392
000180 ec f1 41 3d 11 f0 a3 3d 8c 25 df 3c 86 48 5f 3e
       0.047349855 0.080047734 0.027239583 0.21805009
000190 fc 05 9b be 8a cf e7 bd b4 8a f5 3d 4d 1d 4e 3e
       -0.30278003 -0.11318882 0.11989346 0.20128365
0001a0 c0 ee 5c 3e 09 09 65 3d 1b 6b 95 bd 4a 4c 26 3e
       0.21575451 0.05591682 -0.07295819 0.1624004
0001b0 82 a5 8f be 1c c3 93 3d 14 28 1a 3c e8 08 71 be
       -0.2805596 0.072149485 0.009408969 -0.23538554
0001c0 a9 fe a6 bd d9 9e ef bd f3 c1 de bd 5f be 90 3d
       -0.08154041 -0.1170022 -0.10876837 0.070675604
0001d0 35 1c 88 bd de c4 d3 bd 9f 12 1d be 53 d5 10 be
       -0.06646005 -0.10340284 -0.15339135 -0.14143877
0001e0 26 a3 b3 bc 9b 2b dc 3d d1 49 48 bd 83 2d 20 3e
       -0.021928381 0.107505046 -0.04889852 0.15642361
0001f0 0d 24 cb be 7d 28 28 be dd b9 9f bc 28 cd b8 be
       -0.39675942 -0.16421695 -0.019497806 -0.36094022
000200 d9 6e e6 bc 91 c0 85 3e 4c 0d 50 bd 43 91 91 be
       -0.028129028 0.2612348 -0.05079393 -0.28431138
000210 1e b2 06 bf c6 68 57 3e 74 36 06 be 90 37 dd ba
       -0.52615535 0.21036062 -0.1310671 -0.0016877521
000220 6a b7 85 3e 42 4a 4e 3d 19 6d c7 3d 8a 86 8c 3d
       0.26116496 0.050363787 0.097376056 0.06861599
000230 88 8a 8e 3d d7 6c 24 be 3a 65 8e 3d b7 7a 36 3d
       0.069600165 -0.16057144 0.06952901 0.044550624
000240 7c 52 92 be 8b 20 ce 3c 34 1e 65 be 3b 88 93 3e
       -0.28578556 0.025162002 -0.22374803 0.28814873
000250 b2 f3 4f 3c d1 9c a7 b9 cd b0 98 3e d1 be 01 be
       0.012692379 -0.0003196956 0.29822388 -0.12670447
000260 71 3c 02 3e 8d 65 57 3d 41 2f fe bc dd 17 aa 3d
       0.12718369 0.05258708 -0.031028392 0.08305333
000270 1c a8 9d bd e2 e7 78 3e 15 82 17 bd f9 1d d7 3b
       -0.0769808 0.24307206 -0.03698929 0.0065648523
000280 86 02 7b be 9e 99 45 3e d1 de fa be 6e 88 60 bd
       -0.24512681 0.19296882 -0.4899812 -0.05481761
000290 72 3f d7 3d e6 c2 b0 3c 1f 11 49 be 39 a5 ee bd
       0.10510148 0.02157731 -0.19635437 -0.116526075
0002a0 18 3d ab 3e 05 e7 db 3d 4d a9 96 be c3 67 db 3d
       0.33445048 0.10737423 -0.2942604 0.1071315
0002b0 bc df aa be e9 f4 23 3e 59 49 3a 3e 26 d8 39 bd
       -0.3337382 0.16011395 0.18192042 -0.04537215
0002c0 9f c1 42 be 60 10 4c bd 1d 19 05 3e b5 05 ef bd
       -0.19019173 -0.049820304 0.12997861 -0.116710104
0002d0 3f 2f ab bc 00 b0 14 3d 05 9b 34 3d 6a 50 1b 3e
       -0.020896552 0.03630066 0.04409315 0.15167394
0002e0 ae 19 2a 3e bc b1 c2 bc 56 11 64 3c 4a 73 ff 37
       0.16611359 -0.023766391 0.013920149 3.0452054e-05
0002f0 e3 6c 5b 3e 00 4f 89 bd 00 12 36 3e 31 6f f2 3d
       0.21428256 -0.06704521 0.17780304 0.11837614
000300 d2 9a 10 be 50 d8 e4 be d6 fa 85 3d 97 3d 31 3e
       -0.1412156 -0.44696283 0.06541984 0.17308651
000310 e2 2d 48 3e 37 c2 aa 3d ad 85 c7 bb 58 2f 9e 3d
       0.19548753 0.08337825 -0.0060889334 0.07723874
000320 65 db 33 bc 91 67 9f be 1a e2 4e bd 2d 5f ee bd
       -0.010977601 -0.31133702 -0.050508596 -0.11639247
000330 5d 6d 33 be 0b 29 7d be b6 27 b8 3e a1 09 18 3e
       -0.17522188 -0.24722688 0.35967797 0.14847423
000340 18 e8 1d 3e d9 54 44 be a1 1c 27 3d 75 4a 94 bd
       0.15420568 -0.19172992 0.040798787 -0.07240764
000350 8f d4 35 be c4 55 e3 3e c1 ce 70 be 7b 55 82 3c
       -0.17756866 0.4440137 -0.2351637 0.0159099
000360 28 86 77 bc 15 86 ad bd 17 01 a1 bb ee c6 62 3c
       -0.015107669 -0.0847284 -0.00491346 0.013841374
000370 48 8f 34 3d ef 9e 95 3e 81 37 5f bc eb 27 d2 bc
       0.044081956 0.2922282 -0.013624073 -0.0256538
000380 8b e6 11 3d c2 30 65 3d 2e df 52 be 7e cc ac 3d
       0.035620254 0.055954702 -0.20592949 0.08437441
000390 45 c4 92 bc a1 48 2f 3e 68 b5 75 be a9 73 e9 3d
       -0.017915854 0.1711755 -0.23994982 0.113990135
0003a0 13 8d 96 3d ca 85 83 3d 55 bf cf be 59 30 00 be
       0.073511265 0.064220026 -0.40575662 -0.12518443
0003b0 e0 54 35 be 38 30 c0 3d dc ef 23 3e f6 5d a9 bd
       -0.17708158 0.09384197 0.16009468 -0.08269875
0003c0 67 b5 0c 3d 8b 30 ca 3d 10 cf c3 bd dd d8 6b bd
       0.034352686 0.0987254 -0.095609784 -0.057579864
0003d0 59 70 66 be a2 45 4a be 72 56 f0 bd 8c 76 79 bb
       -0.22503795 -0.19753125 -0.11735238 -0.0038065044
0003e0 07 df 33 be bb 7c c6 bd 68 f9 55 3c 15 bf 50 3e
       -0.17565547 -0.09691759 0.013059951 0.20385392
0003f0 f0 b7 c7 bd 3c c8 18 bd 1d 6a a2 be 64 26 b7 3d
       -0.0975188 -0.037300333 -0.31721583 0.08942869

bias f4 [256]
000000 2e d0 bb bb 09 32 62 3e 1b 0c b5 bc 92 ff b2 bc
       -0.005731604 0.220894 -0.022100499 -0.021850381
000010 db cb 8a bd cd 24 d5 bc 2e 46 cf 3d 89 bb cf 3c
       -0.067771636 -0.026018525 0.101208076 0.025357978
000020 fb ad 16 be 17 48 87 3d 0b 51 5b bd c2 52 fc 3d
       -0.14714806 0.06605547 -0.053544085 0.12320472
000030 ec 3c 07 3d 8f 25 18 3d 02 53 06 bd ef 2c c4 bd
       0.033017084 0.037145194 -0.032794006 -0.09578883
000040 3f 46 01 bd 2b 89 0d 3d cf ec 13 be 41 2b c3 bc
       -0.031561133 0.03455464 -0.14445804 -0.023824336
000050 32 62 2f 3e 0a ea ad 3d bd c8 d4 3d f8 e1 22 be
       0.17127302 0.08491905 0.1038985 -0.15906513
000060 1d bf 91 bd b4 72 cc 3d 39 bc 6d 3e fa 67 07 3e
       -0.0711653 0.099828154 0.23216332 0.13223258
000070 96 68 9b bc ed f9 15 3d ac 51 9f 3d 7f df 52 3e
       -0.018970769 0.0366153 0.077792495 0.2059307
000080 c3 80 65 3e 39 29 38 3d bb a2 3b 3e 8f 04 14 bd
       0.224124 0.044961188 0.18323795 -0.03613716
000090 66 4d 02 bc 68 67 d5 3c 21 f1 99 bd 62 b3 c4 bc
       -0.007953024 0.026050285 -0.07516695 -0.024011318
0000a0 27 45 01 be a8 e2 77 3d 0d b6 02 3e db e0 02 bd
       -0.12624036 0.06051889 0.1276476 -0.03195272
0000b0 d0 e4 2b b8 38 49 b1 bd 34 0d f6 bb 00 ee 1c 3e
       -4.0982675e-05 -0.086565435 -0.007508898 0.15325165
0000c0 48 94 6b bd f8 0c 09 be 4c 19 2a 3e fc 72 ea 3d
       -0.05751446 -0.13383853 0.16611212 0.11447713
0000d0 03 a1 c9 3d 4e 25 fc bc 0d d9 35 bc 22 f8 99 bd
       0.09845164 -0.030779507 -0.011099112 -0.07518031
0000e0 9e c0 8b bd f2 5d 7a bd 66 e3 2f 39 4c c1 23 3d
       -0.06823848 -0.06112475 0.00016774013 0.039979264
0000f0 b7 0b 85 bd d7 a8 6b bd fd 7b 49 3d fb 34 0e 3e
       -0.06496375 -0.057534065 0.04919051 0.13887398
000100 3b 5a 24 3d 62 99 0f bd 78 df 41 bd ad 81 93 3d
       0.040125113 -0.035058387 -0.047332257 0.07202468
000110 91 07 a5 3d 78 03 f9 bd 57 02 86 3e 25 2a f7 3d
       0.08058084 -0.12158865 0.2617366 0.12068585
000120 84 91 a1 bc 65 2a 5c 3d 2a 10 9a 3d d1 2e f4 3d
       -0.019722708 0.053751368 0.07522614 0.11922992
000130 5a 58 60 3d b9 5c 7a bd cb f1 63 3e 46 1e 51 bc
       0.05477176 -0.061123583 0.22260205 -0.012763565
000140 52 f0 ba 3d 24 6d 1e 3e 2e 7a 8b 3d c3 54 04 be
       0.09127869 0.15471321 0.06810413 -0.12922959
000150 c7 16 0a 3c 59 15 df bd b7 1b 84 bc fb 2d 7c bc
       0.008428282 -0.108927436 -0.016126497 -0.015391822
000160 80 d0 e0 bc ef 24 ed 3d 73 50 8c 3d bd d1 44 3c
       -0.02744317 0.1157931 0.06851282 0.012012896
000170 f0 d0 89 3d 6f 99 3b bd 9b 38 34 bd 39 c4 06 be
       0.06729305 -0.045800623 -0.043999296 -0.1316079
000180 68 a5 ba bd a8 27 a1 3d a0 d6 e1 bc 6a c7 a8 3d
       -0.0911358 0.07868892 -0.027568161 0.0824116
000190 4a c9 86 bc e7 63 27 3c ff 64 4f 3b 5d 53 90 3d
       -0.016453404 0.01021669 0.0031645892 0.0704715
0001a0 32 6a f0 bd 50 b4 96 ba 05 8d eb bc f2 cc b7 bb
       -0.11739005 -0.0011497829 -0.028753767 -0.005609148
0001b0 fb 95 20 3b e1 f2 89 bb d3 37 43 3d 66 86 84 bb
       0.0024503458 -0.0042098616 0.04766066 -0.004044342
0001c0 2b ce e0 ba e5 24 53 bd bc c6 c4 bc 89 5d bb bd
       -0.0017151287 -0.051548857 -0.024020545 -0.091487
0001d0 44 1e 53 bd 3c ad 34 3e 9f 92 f8 bc 1c 05 09 3d
       -0.051542535 0.17644209 -0.030343352 0.03345214
0001e0 84 3e 76 3d 51 dd 82 3c 22 6c fd bc 6f 13 04 3d
       0.060118213 0.015974673 -0.03093535 0.032245096
0001f0 b5 83 2b 3c 1a aa 1a 3c 8e b8 81 3d 20 d5 83 3d
       0.010468413 0.009439969 0.06334029 0.06437135
000200 26 e2 d1 3c 94 06 17 bd 34 0e 0f bd f3 c0 1c 3e
       0.025620531 -0.036871508 -0.034925655 0.1530798
000210 f2 53 fd 3c bd f5 fa 3d 69 23 e2 3d 4c d3 9d 3d
       0.030923817 0.12253902 0.1104191 0.07706317
000220 37 bd a9 3b de f9 89 bd 7a eb db 3d 46 54 3b 3d
       0.005180027 -0.067371115 0.10738273 0.045734666
000230 0d 11 c8 bc 05 46 a1 bc c7 7a 23 3d 72 13 af 3c
       -0.024422193 -0.019686708 0.03991201 0.021371577
000240 fa 8f 5d 3d 76 ba 25 3e 36 23 41 bd c6 86 8a bd
       0.054092385 0.1618441 -0.04715272 -0.06763987
000250 6f e5 c9 3d c0 86 f2 bd a8 dc 24 bb 62 32 77 bd
       0.09858214 -0.11842108 -0.0025155935 -0.060350783
000260 de f1 e3 3c 20 59 41 bd 7c f5 24 bd ad 2a ac 3d
       0.027825292 -0.047204137 -0.040273175 0.08406577
000270 19 bd e5 bd 4c 70 62 3c c1 a6 b1 bc 07 92 a3 bb
       -0.11217708 0.013820719 -0.02168596 -0.004991773
000280 b0 ae 17 3d 9b 58 fe bd 51 28 74 bd cc a9 9c bc
       0.03703183 -0.12419244 -0.05960876 -0.019123934
000290 38 cf 05 be cb 2c ec 3d 4b 70 2b bc 9c d2 c2 3d
       -0.13067329 0.11531981 -0.010463784 0.09512827
0002a0 98 20 15 bc cf 06 fe bc fb 00 12 3e 19 f0 c3 bd
       -0.009102009 -0.031009106 0.14258187 -0.09567279
0002b0 05 00 99 3c 8f 82 41 bc d3 4b f1 bc 88 49 16 bc
       0.018676767 -0.011810913 -0.029455101 -0.009172805
0002c0 b6 a7 3f 3e b4 42 06 be 6e bd 00 3d 74 82 bc 3d
       0.1871632 -0.13111383 0.031430654 0.092045695
0002d0 00 55 eb bc b5 5a 4d 3d 60 0e 7b 3c 5b 96 cf bc
       -0.028727055 0.050135333 0.0153232515 -0.02534025
0002e0 67 a9 1f 3e 69 6f 23 3e cb ec 5f bd 68 f5 e4 3d
       0.15591966 0.15960468 -0.054669183 0.1117962
0002f0 10 5e d9 bc ae 63 17 3e e3 43 24 bc dd d0 0a 3d
       -0.02653411 0.14784119 -0.010025951 0.033890594
000300 7c 32 3b 3e ef d0 c8 3c 0d 61 71 3d 28 9d 02 bd
       0.18280977 0.02451369 0.058930445 -0.031888157
000310 ab bf dc 3d 02 13 82 bd 22 42 b1 3a 37 53 60 bd
       0.10778745 -0.06351282 0.0013523737 -0.05476686
000320 ca d5 32 3d a4 3c 29 bd af 0a 7e 3d 8d 89 e9 3c
       0.043660916 -0.041317597 0.062021907 0.028507972
000330 56 39 62 3d 4f 5f 13 3e 8d 59 d2 3c 68 23 d0 3d
       0.05523046 0.14391826 0.025677467 0.10163003
000340 8a 72 e1 3d 4e f4 0e 3d 87 7f 49 bc dd 94 b9 3c
       0.11008175 0.034900956 -0.012298471 0.022653991
000350 ad 19 ff bc 85 7f 51 bd e5 2c 6c bc 71 41 c0 3d
       -0.031140173 -0.051147003 -0.014415001 0.09387482
000360 07 ff 30 3d 8b 27 a8 3d 05 5a 57 bd 0b e4 15 3e
       0.043211963 0.08210667 -0.052576084 0.14637773
000370 74 4b 2d bc 9e e9 02 3d 6d ed 61 bd 1f 31 13 3c
       -0.010577071 0.031961076 -0.055158067 0.008983879
000380 9c eb dd 3d 0b bb 93 3d c1 33 11 3e 46 3e a7 bd
       0.108359545 0.0721341 0.14179899 -0.081661746
000390 64 05 77 bd 1d cc 42 bb 37 9a 85 3b 25 3b 12 3d
       -0.060307875 -0.0029723712 0.0040772217 0.035700936
0003a0 3a 2f 9c 3d 68 ff 1e bd eb fb ce 3d 8a 88 32 3e
       0.07626195 -0.038817793 0.10106643 0.17434898
0003b0 c8 0f e6 3d 94 d0 53 bd bd 31 24 3d 80 04 1f bd
       0.11233479 -0.051712587 0.040086497 -0.03882265
0003c0 be 35 48 bd fc 68 36 bc db 9e 85 3d 20 5a 0f be
       -0.048879378 -0.011133429 0.0652444 -0.13999224
0003d0 a7 24 05 3e 32 6e 88 bd 64 10 30 bd 4f e4 78 bd
       0.13002263 -0.06661643 -0.04298438 -0.060764607
0003e0 16 04 d4 3d 64 c6 98 3d b2 d9 e4 3d b4 7a ab bd
       0.10352342 0.07459715 0.111743346 -0.08373013
0003f0 64 e9 7e 3c ee 53 17 3e 1f a2 4a bd 81 1e ad bd
       0.015558574 0.1477811 -0.049471017 -0.08453084

weight f4 [12, 256]
000000 b1 a7 90 3d 52 7a 86 3e 26 96 bf be d2 31 45 bb
       0.070632346 0.26265198 -0.37419242 -0.003008951
000010 76 b7 82 3e b2 96 67 bd 35 3f 03 bc 36 59 11 bc
       0.25530595 -0.0565402 -0.008010675 -0.008871367
000020 a1 74 73 3e b9 e5 32 be 2e 47 15 3e 1b 57 4f 3d
       0.23774959 -0.17470445 0.14577934 0.05062018
000030 23 97 37 bd c6 b8 03 be a3 5e 26 3e 8a ac bc be
       -0.04482187 -0.12863454 0.16247039 -0.36850387
000040 46 ca d4 3e 0b 86 27 be 61 47 19 3d 50 80 74 bd
       0.41560572 -0.16359727 0.037421588 -0.05969268
000050 78 98 86 3e 61 cc e7 bc f5 94 4c be fd 2b 7d be
       0.262882 -0.028295698 -0.19978698 -0.24723811
000060 35 86 84 bd 17 0d 23 be 68 fd ec 3d 0a 4c 70 3e
       -0.064709105 -0.15922962 0.11571771 0.23466507
000070 52 fb 0d 3e 9c cb d9 be 08 39 73 be ec c7 ab 3c
       0.13865402 -0.42538154 -0.23752224 0.020969354
000080 77 92 83 be ca e8 1c 3e e4 aa 16 3e e7 95 30 3e
       -0.2569768 0.15323177 0.14713627 0.17244683
000090 78 7c e9 bd eb 95 85 bd 2c 8e 08 3d 33 5e 82 3d
       -0.11400694 -0.06522735 0.03333871 0.06365623
0000a0 94 c5 10 bd 70 2a 2e bd 48 66 d6 3e bd d9 c0 3d
       -0.035344675 -0.04252094 0.4187491 0.0941653
0000b0 f5 26 15 be 79 f3 44 bc ad 94 d4 3e c4 96 f0 bd
       -0.14565642 -0.012020939 0.4151968 -0.11747506
0000c0 31 db 47 3d e4 fc d8 3c a6 9d 28 be f8 c2 b9 bd
       0.04879302 0.026487775 -0.16466388 -0.090703905
0000d0 86 c4 83 3e 2b 46 80 3e 62 f8 b5 3d 98 a4 6c bd
       0.25735873 0.25053534 0.08885266 -0.057774156
0000e0 a2 74 35 3d f5 db 1c be ba bc 05 3e 8b ce aa 3d
       0.044300683 -0.15318282 0.13060275 0.08340176
0000f0 71 5c 89 3e 05 de 0b 3e 16 06 75 3d d7 c8 3f bd
       0.2682834 0.13658912 0.059820257 -0.046822395
000100 9e 0e db bd bc 92 bf bd e6 2b ed 3d 98 e5 05 3c
       -0.106961474 -0.09354159 0.115806386 0.008172415
000110 62 e9 87 be 7a b0 12 3e fe 1f 52 be ab 3e 52 be
       -0.26545244 0.14325133 -0.20520017 -0.20531718
000120 60 81 15 3d 91 ac 9b bd b5 66 94 3d 0c 5c cb be
       0.036500335 -0.07601274 0.07246152 -0.39718664
000130 6f 32 c8 be 38 51 16 3e dd 00 a2 3e 79 ee cd 3e
       -0.39100978 0.1467942 0.31641284 0.40221003
000140 b9 1c 53 3d 30 9f 9d 3d f3 a9 4c 3c b4 5b 09 3f
       0.051541064 0.07696378 0.012491691 0.5365555
000150 72 3a 64 3e d3 34 10 3d 4c d7 8f 3e 69 9b 09 3d
       0.2228792 0.035206627 0.28093946 0.033595476
000160 90 dd 28 be ee 7d 8a be 5e ff 62 3e 2a 60 7b be
       -0.1649077 -0.27049202 0.22167727 -0.24548402
000170 0f 65 19 be 8c f5 8e 3a 1d b7 d4 3d a2 58 8d 3e
       -0.14979957 0.0010906919 0.103864886 0.27606684
000180 fd 9a 25 be 74 a1 b0 bd 1e 03 a0 be d9 29 8b 3d
       -0.16172405 -0.08624545 -0.31252378 0.06795091
000190 2f ed 0e be cb 19 b3 3d 02 ca 37 bd 0d be 87 3e
       -0.13957666 0.08745154 -0.044870384 0.26512185
0001a0 f0 78 25 3c 51 ec ad be 5d 0d f1 3d 62 d2 66 be
       0.0100996345 -0.33969358 0.11770127 -0.22541192
0001b0 74 0b 95 3c 92 bf 97 be ed 65 64 be 0b 8b 83 3d
       0.018193938 -0.29638344 -0.22304507 0.06423005
0001c0 95 b3 a1 3e 24 ed eb bd 88 f7 fe bd bb 07 7a be
       0.31582323 -0.1151984 -0.124495566 -0.24417011
0001d0 ef 6f 4f 3e 3a c3 cd be cb cc ad bc b8 71 0e 3f
       0.20257543 -0.4018801 -0.021215817 0.5564227
0001e0 39 43 05 3e 07 0f 8c 3e 82 f9 0e be 37 13 20 3d
       0.13013925 0.27355215 -0.13962367 0.039080825
0001f0 cc 14 a7 be 57 97 c8 bc 21 a7 2f be 53 c3 49 bc
       -0.32633054 -0.024486227 -0.17153598 -0.012314635
000200 63 03 ca be 0e 5d 5e be e1 0e 2b be 1e 57 e6 3d
       -0.3945571 -0.21715185 -0.16704895 0.11247085
000210 48 cb 9f bc b2 77 6d bd a1 54 aa bc e3 37 b5 3e
       -0.019506112 -0.05797548 -0.020792307 0.353942
000220 66 ae 0f 3e 78 02 9e be f7 08 30 3e 15 52 c5 bd
       0.14031371 -0.30861259 0.1719092 -0.096347965
000230 01 55 4a 3e 5b 7e f6 3e ea 19 e0 3d 2e d5 f8 bc
       0.19758989 0.48143277 0.10942443 -0.03037509
000240 9d 2e a7 3e 0d 75 f6 3e f8 df 4a be 83 ae 8e 3d
       0.3265275 0.48136178 -0.19812 0.06966879
000250 d3 8a 1c 3e 5b ba 05 be 05 ee 1f 3d 4e 57 15 3b
       0.15287332 -0.1305937 0.039045352 0.0022787633
000260 cf b3 a5 be 59 7d e7 bd 6a e2 20 3e 50 65 d6 bd
       -0.32363746 -0.11303205 0.1571137 -0.104685426
000270 8c 4c c7 bc 8c 68 80 bd 35 cb a0 3d 85 db c5 3d
       -0.024328493 -0.06269941 0.07851259 0.09661011
000280 01 c7 fc 3a a4 fd 8f be bb 8b 4b 3d 0d cf 69 bd
       0.0019285382 -0.281232 0.049693804 -0.057082225
000290 c0 ab 41 be bd 04 b5 3d 65 54 1a bb 79 5c 9b bd
       -0.18913174 0.088387944 -0.0023548838 -0.07585997
0002a0 2a 53 7f 3e 0c c3 07 3e 94 9a a4 bd 81 e8 2c be
       0.24934068 0.13257998 -0.08037296 -0.16885568
0002b0 16 dd aa 3e 62 2c 1f be 9c 39 9e 3d 35 0a 03 be
       0.333718 -0.15544274 0.07725832 -0.12796862
0002c0 72 2b f8 bd 58 9f d7 3d 2b e0 e5 3d a1 74 af 3a
       -0.121176615 0.10528439 0.11224397 0.0013386199
0002d0 a4 33 a3 3d 95 fb 84 bc 0d b4 b2 3c d5 5c a1 3b
       0.07968834 -0.016233245 0.02181437 0.0049243965
0002e0 19 07 98 bd 8b c7 b1 be 2b 0f 2c be 40 2d b8 3d
       -0.07423229 -0.34722552 -0.16802661 0.08993006
0002f0 26 3b d3 3d 3f 50 92 bd 19 c3 fe bb b1 95 42 3c
       0.10314016 -0.07144212 -0.0077747223 0.0118765095
000300 1b 53 83 3e 36 c6 9f 3d e7 1f 90 be 70 92 4e 3d
       0.25649342 0.078014776 -0.2814934 0.050432622
000310 38 77 0b be f5 15 91 3e e9 3c b0 bc 7a fe 84 be
       -0.13619697 0.28337064 -0.02151342 -0.259754
000320 bf 9e 4b 3c 8c ab 65 3e 7b 80 7b be 60 45 99 be
       0.012427985 0.22428721 -0.2456073 -0.2993574
000330 48 c2 38 3c 7e 6e f2 3c d8 22 89 3c 39 4e 4b be
       0.011276789 0.029593702 0.016740248 -0.19854058
000340 af ab b5 bd fe b7 de 3d ea 20 bc be 39 bf 83 3d
       -0.08870637 0.108749375 -0.3674386 0.06432957
000350 dc ca 9f 3c c0 9c 11 3c 19 a8 f4 3d 96 17 63 3e
       0.01950591 0.00888747 0.119461246 0.22176966
000360 48 45 5d be bf da 63 bd 95 8e 88 bd 56 0b 07 3e
       -0.2160846 -0.055628534 -0.0666782 0.13187918
000370 03 f3 31 be f1 ce 38 3e a2 7f 37 be 77 37 6f 3d
       -0.17377858 0.18047692 -0.17919782 0.058402505
000380 3c 18 dd bd c1 41 a3 3d 0b d5 90 be e0 58 62 be
       -0.10795638 0.07971526 -0.2828754 -0.22104216
000390 13 50 6b be 76 51 71 3e 27 6b d2 3b 7f 15 0f bd
       -0.22979765 0.23566231 0.006421465 -0.03493261
0003a0 a7 6c d3 3d 51 0e 92 3e dd 33 e0 bd 42 a9 73 be
       0.10323458 0.28526548 -0.10947392 -0.23795035
0003b0 57 e8 70 3d 8e 99 d6 3d f6 7a 5b bd 28 8a 10 be
       0.058815327 0.10478507 -0.05358406 -0.14115202
0003c0 63 66 09 be d2 62 10 be 2b 29 e2 bd f9 3f d2 3e
       -0.13417964 -0.14100197 -0.110430084 0.41064432
0003d0 61 10 38 3c 11 4c 46 bd f8 c9 1f 3e 17 b4 b3 3d
       0.011234374 -0.048412386 0.15604389 0.08774584
0003e0 1e d7 5b 3d 9a 08 e7 bd a1 bb 16 bd d0 04 1c 3e
       0.05367195 -0.112809375 -0.03680003 0.15236211
0003f0 fe 4b 12 be 23 d2 0e 3d 6d 34 d8 3d 3a 35 84 be
       -0.14286801 0.03486837 0.105568744 -0.2582186

bias f4 [12]
000000 85 03 c0 bd db 7f 09 be 0b b1 03 bd b5 57 3d 3c
       -0.09375671 -0.13427679 -0.032151263 0.0115565555
000010 e8 60 05 3c 99 dd 9a bd d8 d2 00 bd 7b e2 bc 3d
       0.00814078 -0.07561798 -0.031451076 0.09222885
000020 1b a4 53 3d 15 99 d7 bc b3 65 95 3c f4 ee 83 bd
       0.051670175 -0.026318112 0.01823697 -0.06442061

action f4 [64, 12]
000000 29 e0 8f bf c1 82 16 3e 6e f0 9a bd 2b 4b ae 3e
       -1.1240283 0.14698316 -0.075653896 0.34041724
000010 fc ef 1c 3d e2 7d 9f 3e 07 8f 79 3e 05 97 80 3e
       0.038314804 0.31150728 0.24370967 0.2511522
000020 e5 42 2d be 91 6b 57 3d 9b a8 28 bd 78 f2 0e 3e
       -0.1692005 0.052592818 -0.04117642 0.13959682
000030 5d 88 bd 3e 70 33 fe be e1 75 4c 3e fb e2 19 3e
       0.370181 -0.4964862 0.19966842 0.15027992
000040 21 0d c4 be cb fb cf bd e5 3e a7 bf 62 4d 4a 3e
       -0.38291267 -0.101554476 -1.3066069 0.19756082
000050 c6 ec 61 be a9 7b 80 3f 76 be e3 3d a0 34 96 be
       -0.22062978 1.0037738 0.11120312 -0.29337025
000060 54 08 3e 3f 1e 3b 5d be ec ce e0 3e b4 51 60 bd
       0.7423146 -0.21604583 0.4390787 -0.05476542
000070 79 a2 09 bf 72 77 b3 3e 7a 2b 81 bf e2 6f 63 3e
       -0.5376354 0.35052067 -1.0091393 0.22210649
000080 89 0b 4e bd cc 52 99 3e a2 bd df 3d 9f d7 e1 3d
       -0.05030397 0.29945982 0.109248415 0.110274546
000090 95 2c 7b bf 00 3d c4 bd 50 33 09 3d 61 66 0d 3e
       -0.981149 -0.09581947 0.0334962 0.13808586
0000a0 f5 e3 36 3c e1 51 49 be af c9 8f 3d 16 b6 1d 3f
       0.011162748 -0.1966014 0.0702089 0.61605966
0000b0 96 33 17 be 98 2d a8 bd c4 9d fb bc 27 86 e3 bd
       -0.14765772 -0.08211821 -0.030714877 -0.11109572
0000c0 7c 7f b1 bd 71 6c 7d bf fa f5 1e 3f 38 3e db be
       -0.08666894 -0.98993593 0.6209408 -0.42820907
0000d0 a2 f8 00 bf 5c 27 e9 be b6 dc 66 bf 29 1e a6 3e
       -0.50379384 -0.4553784 -0.9018053 0.32444885
0000e0 62 8d 16 3e 26 d7 85 be 70 8b fc be 5c f6 ad be
       0.14702371 -0.26140708 -0.49325132 -0.3397702
0000f0 58 91 21 3d 80 2d 57 be 8d 93 44 3e 92 69 be 3e
       0.03944525 -0.2101345 0.19196911 0.3718992
000100 2a 92 e7 3d 89 50 88 3e ca fb ee 3d f2 f5 87 3e
       0.113071755 0.26623943 0.11669119 0.2655483
000110 ca 73 ce bd 67 c7 b7 3e c4 94 aa bd d8 ff eb bd
       -0.10080679 0.3589432 -0.08329156 -0.11523408
000120 e9 0f 96 3e 08 78 bf 3c da c0 2d bd 92 d4 5f bd
       0.29309013 0.023372665 -0.042420246 -0.054646082
000130 34 5a ed 3e d0 26 90 be a2 90 af 3e e0 8a f9 bb
       0.46357882 -0.28154612 0.34290034 -0.007615432
000140 c9 ba 67 3e 5d 08 96 3e 31 23 e2 3c 16 ad 31 3d
       0.22629847 0.29303256 0.027604671 0.04337796
000150 ae 33 31 3f 9d 51 03 bf db e0 1c 3f e5 bc 1f be
       0.6921948 -0.51296407 0.612806 -0.15599401
000160 dd c6 f8 be 42 2a 66 3e 5e 22 a4 bf 84 9f 5f 3e
       -0.4858922 0.22477058 -1.2822988 0.21838194
000170 26 9c a9 bd bd ef e9 3f 39 45 58 bd 22 b1 84 be
       -0.08281736 1.8276287 -0.05280039 -0.25916392
000180 60 35 b7 bb cf 29 44 3e d0 f6 9b bc 80 38 3e 3f
       -0.0055910796 0.19156574 -0.019038588 0.7430496
000190 9e 43 c6 bd 70 6e 2b 3d 40 f2 ea bb 95 a9 e1 bd
       -0.09680866 0.04185337 -0.0071699917 -0.11018673
0001a0 66 2c cc bd 76 6f 17 bc 6c 1e c0 be 7a 50 8c be
       -0.09969406 -0.009242883 -0.3752321 -0.2740515
0001b0 58 ce 98 3e e6 e6 93 be 80 b3 4d 3c 0a 22 e9 3d
       0.29844928 -0.288871 0.012555003 0.113834456
0001c0 3b 96 8e be 85 c9 bf 3d d1 b0 46 bf 29 4b 05 3e
       -0.27848992 0.09364609 -0.7761355 0.13016953
0001d0 1d 60 0d be cd 23 38 3f b6 8d a7 3c 32 a5 5b be
       -0.13806196 0.7192963 0.020453315 -0.21449736
0001e0 cf d4 fb be 66 95 c2 be 07 84 15 bd b2 37 c1 3f
       -0.49185798 -0.38004607 -0.036502864 1.5095122
0001f0 9a 24 9e 3e 76 cc 12 be 4c eb 8f 3e b4 e0 41 3f
       0.308873 -0.14335808 0.28109205 0.75733495
000200 d4 6e 00 bf ce 4e 11 be 38 cf e5 3e 39 ed a6 3e
       -0.5016911 -0.14190218 0.44884658 0.32602862
000210 34 66 ec 3c fd 23 12 be b0 07 90 bc e5 82 05 be
       0.028857328 -0.14271541 -0.01758179 -0.13038214
000220 02 f9 a7 bb 5d 85 1e bf af 59 27 bf 17 73 c2 3e
       -0.0051261196 -0.61922246 -0.6537122 0.37978432
000230 6c bf 76 be 36 0a 2c 3f f4 c2 57 3e bd b3 d1 bd
       -0.24096459 0.6720308 0.21070462 -0.102393605
000240 60 bf 7c 3c 72 d6 36 be 70 98 3a be ff 73 e4 3e
       0.015426487 -0.17855242 -0.18222213 0.44619748
000250 90 14 53 3e 83 36 9d 3e 0d 13 40 be 94 14 df 3e
       0.20613313 0.30705652 -0.18757267 0.43570387
000260 0f e1 43 bd f8 a0 cb be 28 72 f8 bb 6b 18 c7 be
       -0.047822054 -0.39771247 -0.007581968 -0.38885817
000270 1f 14 9b 3e 5c 68 be be 63 9d bc 3e a0 29 b4 bb
       0.3028879 -0.37188995 0.36838827 -0.005498126
000280 13 1a f0 bd f8 f1 e9 bd 3f ae 5b bf f0 c0 a7 bc
       -0.11723723 -0.11423105 -0.85812753 -0.020477742
000290 c6 b4 e5 3d 28 55 45 3f 41 a5 43 3e 3e 8e 50 3e
       0.112161204 0.77083063 0.19106008 0.20366761
0002a0 8d 88 dd be d3 84 33 3e 2f b5 82 bc 8f c4 34 3e
       -0.43268242 0.17531137 -0.015955536 0.17653106
0002b0 db 0d 32 3e 44 b8 41 bf 40 89 9c bd aa e7 0d 3e
       0.17388098 -0.7567179 -0.07643366 0.13857904
0002c0 92 9d b0 3d e7 93 1e 3f 14 6d ec bd 90 68 d6 bc
       0.08623804 0.6194443 -0.115442425 -0.026172906
0002d0 84 0a d6 3d f8 6f 8f be 64 89 58 3d 72 2f d7 3e
       0.104512244 -0.28015113 0.0528654 0.42028385
0002e0 5c 02 03 3d 5a aa 05 3e 54 75 da be d9 3d a9 3d
       0.031984672 0.13053265 -0.4266764 0.0826375
0002f0 22 ab ab bd f4 c2 54 3e 06 0c 90 be 78 fd 00 bf
       -0.0838225 0.20777494 -0.28134173 -0.5038676
000300 90 c2 90 be 44 11 42 be 96 d7 a7 3e 22 43 17 bd
       -0.2827344 -0.18951899 0.32781667 -0.036929257
000310 f5 8c dc bd 6a bb e1 be 3f e6 21 bf a8 8f 57 3d
       -0.10769073 -0.44088298 -0.6324195 0.052627236
000320 08 80 5e 3e cf 9e 8d 3e c3 ec 16 bd 9e c9 1b 3e
       0.21728528 0.27660224 -0.036846887 0.1521363
000330 e8 ad 24 3e 91 57 32 3e c2 2f 47 be c6 ad f9 3c
       0.16081965 0.17416216 -0.19451812 0.03047837
000340 10 bc 37 3e 7e a8 43 3e 24 b2 90 be ed e2 0a 3e
       0.17942834 0.19107243 -0.2826091 0.13563128
000350 2a ab 8f 3c 25 5d 98 3e fa b3 f0 3d aa 85 9a bd
       0.017537672 0.29758564 0.11753078 -0.07545026
000360 dd dd 80 3e a1 1f 84 be 28 65 ea 3d b2 aa ce 3e
       0.25169268 -0.2580538 0.11445075 0.40364605
000370 7a 17 99 3d 89 17 18 bd ca 99 a3 be c9 f2 f4 bd
       0.07475181 -0.03713182 -0.3195327 -0.1196037
000380 fd 09 16 bd 2f 09 8a 3e 6c e5 78 be bd 7b 1b bf
       -0.03663062 0.26960132 -0.24306267 -0.60735685
000390 fc 3e c7 be 06 02 2d be 64 7f 39 3c 50 73 5c bc
       -0.3891524 -0.16895303 0.011321876 -0.013455227
0003a0 40 29 3e be a0 dd bc bb b6 a7 f4 3d 28 7c a9 bc
       -0.18570423 -0.0057637244 0.11946051 -0.020689085
0003b0 cc 57 3e 3e 0f 42 a9 be d3 33 ef be b9 e2 e0 3d
       0.1858818 -0.3305821 -0.46719226 0.10980744
0003c0 73 5e 47 bf 08 b1 aa be 1e 29 77 3d bd 02 6f 3f
       -0.77878493 -0.3333819 0.060341947 0.93363553
0003d0 e9 f6 10 3e cc dc f1 bd 5c 74 53 3f 6a a3 19 3f
       0.14156689 -0.11809692 0.82599425 0.60014975
0003e0 ad 62 02 bf 20 71 32 be c0 8f 0b 3f f7 c0 bb 3e
       -0.5093182 -0.17425966 0.5451622 0.36670658
0003f0 1a 4d 0f bf 08 fa d1 be bc 8f 21 3e 66 d5 a6 3f
       -0.5597702 -0.4101107 0.15777487 1.3033874

obs_std f4 [41]
000000 af 3a 0c 3d f8 2e e6 3d 05 09 04 3e 3f 00 f8 3c
       0.034235653 0.11239427 0.12894066 0.030273555
000010 a6 86 bb 3f de dd d3 3f 0f eb 9f 3f ff 50 9c 3e
       1.4650466 1.6552083 1.2493609 0.30530545
000020 98 50 62 3e 8c 03 8f 3e e6 1f 9b 3e 19 60 8d 3e
       0.22101057 0.27932394 0.30297774 0.2761238
000030 88 7a 97 3e 98 a5 9b 3e 0d f4 67 3e 4c a9 8f 3e
       0.2958567 0.30399776 0.22651692 0.2805885
000040 31 c8 98 3e 05 96 8f 3e 7a 07 98 3e c8 f7 61 40
       0.29840234 0.28044143 0.29693204 3.5307484
000050 4b 97 56 40 62 e1 c6 40 4b 52 b0 40 b5 b0 db 40
       3.3529842 6.2150126 5.5100455 6.8653207
000060 c0 4b a3 40 61 a7 61 40 fc 81 59 40 54 8a c8 40
       5.102997 3.525841 3.3985586 6.2668858
000070 c7 40 b1 40 29 4b dc 40 30 bf a2 40 95 15 27 3f
       5.5391574 6.884175 5.0858383 0.65267307
000080 0b ec 41 3f 7f b6 62 3e dc b6 78 3e 6c 54 42 3e
       0.757508 0.22139929 0.24288505 0.18977517
000090 05 53 6a 3e b6 ee 6d 3e 9f 18 84 3e 98 05 a7 3e
       0.22883232 0.23235592 0.25800034 0.32621455
0000a0 98 05 a7 3e
       0.32621455

obs_mean f4 [41]
000000 d7 86 7b 3f 2c e4 94 ba 0c 13 6b 3d 55 66 2d 3a
       0.98252624 -0.0011359504 0.05739121 0.0006614675
000010 ae 14 47 3c 0c c6 8b 3e 3c ae 2a bd d1 56 37 bf
       0.0121509265 0.27299535 -0.04167007 -0.71616846
000020 38 b7 3e bd c8 b2 9d 3b 12 ba 80 3f e2 3f 9c 3c
       -0.04656145 0.004812572 1.0056784 0.01907343
000030 23 f8 db be 08 28 37 bf bf 1d 7f 3d b1 56 a2 bb
       -0.4296275 -0.7154546 0.062284227 -0.004954182
000040 b4 eb 80 3f 35 ad dd bc 36 0b db be 2c 7d f6 be
       1.0071931 -0.02706013 -0.4278199 -0.48142374
000050 f1 17 39 3d 69 d7 af 3d 1b c0 ee 3e fb dc a2 3c
       0.045188848 0.08586008 0.4663094 0.019880762
000060 84 1f e8 3b c2 b0 f9 be 8e 2a 0a bd 73 31 e0 bd
       0.007083835 -0.48767668 -0.03373199 -0.10946932
000070 30 bc f6 3e 07 fe 72 bd c4 f4 33 bc 55 a2 30 bc
       0.4819045 -0.05932429 -0.01098365 -0.0107808905
000080 26 88 15 bc a8 87 71 3e 36 27 01 3f 8b 1e 15 3d
       -0.009126699 0.23586905 0.50450456 0.03640608
000090 71 76 a5 bc 1e 4a 21 bf 2a 11 19 bf 86 b3 84 3c
       -0.020198079 -0.6300372 -0.59791815 0.016198885
0000a0 86 b3 84 3c
       0.016198885
