trained/construction/critic.pt (torch, 311495 bytes, 7 tensors)

weight f4 [256, 41]
0	0xbe38a4a8	-0.18031561
1	0x3fe12d56	1.759196
2	0x3ecb59a5	0.3971683
3	0xbd983800	-0.07432556
4	0x3d54d053	0.051956486
5	0xbe2da247	-0.16956435
6	0xbcd93a8d	-0.026517177
7	0xbd50c9ae	-0.050973587
8	0x3eb7f27f	0.35927197
9	0x3f4d1b02	0.80119336
10	0xbeb95c58	-0.36203265
11	0xbed41993	-0.41425762
12	0x3e1edaa2	0.1551309
13	0x3f111167	0.5666718
14	0x3ea74013	0.32666072
15	0x3f1d0d39	0.613483
16	0xbd5efdd1	-0.054441277
17	0xbeb1a8bc	-0.34699047
18	0x3e46b730	0.19405818
19	0xbdc85a6d	-0.09782872
20	0xbb8cd798	-0.0042981617
21	0xbc3e26b2	-0.011605905
22	0xb86edbc6	-5.69483e-05
23	0x3ad56858	0.0016281707
24	0x3d533d12	0.051571913
25	0x3d24bbc8	0.040218145
26	0xbc2c58b2	-0.0105191935
27	0x3b643637	0.0034822354
28	0xbb98de43	-0.0046651675
29	0x398e853d	0.0002718362
30	0x3ab3c077	0.0013713975
31	0xbeafb404	-0.3431703
32	0x3c83a742	0.016070966
33	0xbe5ff9b9	-0.21872605
34	0x3e9cd3f5	0.3063046
35	0x3f33e6ed	0.7027424
36	0x3ed9b699	0.42522123
37	0x3e8806cb	0.26567683
38	0x3cb708aa	0.022342999
39	0xbfe1d2cd	-1.7642456
40	0xbfe7cef9	-1.8110038
41	0xbd4511c8	-0.04811266
42	0xbef96052	-0.487063
43	0xbf25cd6e	-0.64766586
44	0x3e5bf5ef	0.21480535
45	0x3e0a65ff	0.13515471
46	0x3e676c3f	0.22599886
47	0x3b526eab	0.003210942
48	0xbe914347	-0.2837164
49	0x3fb7429c	1.4317203
50	0xbfce01b2	-1.6094267
51	0xbe3bbe9c	-0.1833443
52	0xbdbbb436	-0.09165232
53	0xbe462caf	-0.19352983
54	0x3d8106a1	0.063000925
55	0xbf19ad86	-0.600304
56	0x3e679a46	0.22617444
57	0x3dd5103b	0.10403486
58	0x3ef26218	0.47340465
59	0x3e506664	0.20351559
60	0x3e0000a4	0.12500244
61	0x3d4d6680	0.05014658
62	0xbca98182	-0.020691637
63	0x3d6ec233	0.05829067
64	0x3c54d0a0	0.012989193
65	0x3c73bf4b	0.014877151
66	0x3c93283e	0.017963525
67	0x3cc0f0bc	0.023552291
68	0xbbed9d38	-0.007251408
69	0x3bf2f047	0.007413897
70	0x3c05a57a	0.0081571285
71	0xbbbf97d5	-0.005846957
72	0xbea20a9d	-0.31648722
73	0x3f167ec5	0.58787185
74	0xbf904335	-1.127051
75	0x3f3d52a1	0.73954207
76	0xbfa44f40	-1.2836685
77	0xbfb36fb8	-1.4018469
78	0xbeb46eff	-0.35240933
79	0x3f51d87a	0.8197094
80	0x3f999823	1.1999553
81	0x3f8f3b19	1.118991
82	0x3e440646	0.19143018
83	0xbfab8425	-1.3399702
84	0xbe93e2e2	-0.28884035
85	0xbe0ad132	-0.13556364
86	0x3c14aa56	0.009073814
87	0x3d1bd3d4	0.038043812
88	0xbdee4723	-0.11634662
89	0xbe5203b6	-0.20509228
90	0x3a8be632	0.0010673462
91	0x3cccebef	0.025014846
92	0xbf1d01ce	-0.6133088
93	0xbe2a94ea	-0.16658369
94	0x3ec43839	0.38324144
95	0x3eccf9bc	0.40034282
96	0xbe6f4e02	-0.23369601
97	0x3ecc69ed	0.39924565
98	0x3eee59f6	0.4655301
99	0x3e32c75d	0.17458864
100	0xbf13519c	-0.575464
101	0x3d660efe	0.05616664
102	0xbcc9120f	-0.024544744
103	0xbcfe5e25	-0.031050751
104	0x3d3643ed	0.044498373
105	0xbaf090e6	-0.001835373
106	0xbc0637a3	-0.008191976
107	0xbe1c4f99	-0.15264739
108	0xbc53aab7	-0.01291912
109	0x381590b0	3.565912e-05
110	0xbd2ef41b	-0.042713266
111	0xbc71903d	-0.014743862
112	0xbc255651	-0.01009138
113	0x3f4b6d9c	0.79464126
114	0x3eadd595	0.33952013
115	0x3d0ba002	0.034088142
116	0xbf55047a	-0.83209956
117	0x3e0b7b26	0.13621196
118	0xbefa09b7	-0.48835537
119	0x3e847a6d	0.25874653
120	0x3eca1ba8	0.39474225
121	0x3e86efbf	0.26354787
122	0x3ccf79da	0.025326658
123	0xbe86346b	-0.26211867
124	0x40cf2c08	6.474125
125	0xc083fff8	-4.124996
126	0x3ead4e85	0.33848968
127	0x3e0246d9	0.12722339
128	0xbe49713b	-0.196721
129	0x3d9c2125	0.07623509
130	0xbf8e7a6e	-1.1131113
131	0x3f5f8866	0.873175
132	0xbf7fa219	-0.99856716
133	0xbf03a232	-0.51419365
134	0xbd5ce207	-0.053926494
135	0xbe3657e5	-0.17806967
136	0x3dc36230	0.09540212
137	0x3f4d4c75	0.8019479
138	0xbf251acf	-0.6449403
139	0x3df74d7c	0.12075326
140	0x3d8a3d30	0.06749952
141	0x3dfff85b	0.12498542
142	0xbdadda24	-0.08488873
143	0x3dafbc27	0.08580809
144	0xbd2b48ad	-0.041817356
145	0xbcf6469e	-0.03006297
146	0x3c0ecfd9	0.008716547
147	0xbba428bb	-0.0050097383
148	0xbb7d62a8	-0.003866354
149	0x3bb8c916	0.0056392057
150	0x3be24a1f	0.0069058086
151	0xbb7964c7	-0.0038054453
152	0xbc2dfc12	-0.01061918
153	0x3c255bfb	0.010092731
154	0x3d730f92	0.05934102
155	0xbda98cf8	-0.08278841
156	0x3f31b68e	0.6941918
157	0xbe9f0b31	-0.31063226
158	0x3dea5fd2	0.114440575
159	0x3e0a1a19	0.13486518
160	0x3db1db6d	0.0868443
161	0xbf220973	-0.6329567
162	0xbd2dd05c	-0.042435035
163	0xbe3233cb	-0.1740257
164	0x3e069f9e	0.13146827
165	0xbfe29e31	-1.7704526
166	0x400d1a8a	2.2047448
167	0x3cf76b8d	0.030202651
168	0x3d302f95	0.043014128
169	0x3e82b639	0.2552965
170	0xbc33de43	-0.010978284
171	0x3f307f5a	0.68944323
172	0xbe57466e	-0.2102296
173	0x3f929fa7	1.1454972
174	0x3ed9ae3f	0.42515752
175	0xbec3c9ea	-0.38239986
176	0x3ec9c65a	0.39409143
177	0xbd12089f	-0.035652753
178	0xbf2e6652	-0.6812488
179	0x3ea1cc81	0.31601337
180	0x3dd79605	0.10526661
181	0x3e096dd0	0.13420796
182	0x3e5507fb	0.20803826
183	0x3d45f91d	0.048333276
184	0xbcfde133	-0.030991172
185	0x3c9e9743	0.019359237
186	0x3c5b01e8	0.013367154
187	0xbc39418f	-0.011307134
188	0xbc409397	-0.011753938
189	0x3dbb885f	0.0915687
190	0x3d55c852	0.052192993
191	0xbc04e28c	-0.008110654
192	0x3d17eecb	0.037092965
193	0xba30c15b	-0.00067426794
194	0xbb05cf4b	-0.0020417746
195	0xbee22234	-0.4416672
196	0xbea6cdf3	-0.32579002
197	0x3ed05131	0.40686944
198	0xbd61094f	-0.054940518
199	0xbea5a1bd	-0.3234996
200	0x3fb20fad	1.3911034
201	0x3db6d211	0.08926786
202	0xbd933881	-0.07188512
203	0xbeaa0103	-0.33203897
204	0xbf2de36a	-0.6792513
205	0xbcc1849b	-0.023622802
206	0xbf848b33	-1.035498
207	0xbf41bea6	-0.7568153
208	0xbe41711a	-0.18890801
209	0xbdfacc64	-0.12246016
210	0xbe42569f	-0.18978356
211	0xbdbe35c9	-0.092876025
212	0x3e82d33d	0.25551787
213	0x3d28ac3e	0.041179888
214	0x3ea27e9f	0.3173723
215	0xbf06c893	-0.526498
216	0xbee7b725	-0.45256916
217	0xbdaa8757	-0.08326595
218	0xbf5638f0	-0.8368063
219	0xbec50a67	-0.384845
220	0x3e61aed9	0.22039355
221	0xbf3a86f0	-0.7286215
222	0x3e7f040d	0.24903889
223	0xbe904305	-0.28176132
224	0x3c16cd70	0.009204254
225	0xbd99ba83	-0.075062774
226	0x3c40c94e	0.011766745
227	0x3c6302d7	0.013855658
228	0x3c65c074	0.014022935
229	0xbd16b2bb	-0.036791544
230	0xbdbd695c	-0.09248611
231	0xbcb8eb9b	-0.022573283
232	0x3cbc756d	0.023005212
233	0xbca858b0	-0.020550102
234	0x3b4f2711	0.0031608979
235	0xbc3936a8	-0.011304535
236	0xbf1e6660	-0.6187496
237	0x3f4b19ad	0.79336053
238	0x3f8279ce	1.0193422
239	0xba5c931b	-0.00084142544
240	0x3f3e7cf7	0.7440943
241	0xbe824ebe	-0.254507
242	0x3e0abfde	0.13549754
243	0xbd7a3ab9	-0.06109116
244	0xbeafc548	-0.343302
245	0xbeedd17c	-0.46448886
246	0xbe5b2215	-0.2139972
247	0x40496aea	3.1471505
248	0xc0675d2a	-3.6150613
249	0x3e97d19c	0.29652107
250	0x3d360917	0.044442263
251	0xbe13848e	-0.14406034
252	0xbdf6549e	-0.12027858
253	0x3d12f564	0.035878554
254	0xbe860939	-0.2617891
255	0x3e00fafa	0.1259574

bias f4 [256]
0	0xbe92190e	-0.2853474
1	0xbd8ec617	-0.069713764
2	0x3df3c83b	0.11903425
3	0xbe00a2db	-0.12562124
4	0x3ca895cb	0.02057924
5	0xbdbd1ee0	-0.092344046
6	0x3cd0668b	0.025439521
7	0xbebafb20	-0.36519718
8	0x3e530064	0.20605618
9	0x3e467e0f	0.19384025
10	0xbdf11ced	-0.11773095
11	0xbe838ad3	-0.25691852
12	0xbe8e6312	-0.2780996
13	0xbe9e1c37	-0.308809
14	0x3c653758	0.013990246
15	0xbe87a4f9	-0.26493052
16	0x3da02c65	0.078209676
17	0xbe159c26	-0.14610347
18	0xbe2be24c	-0.16785544
19	0x3e10ce47	0.14141189
20	0x3c5efc1d	0.013609913
21	0x3ed08720	0.40728092
22	0x3c1233e3	0.008923504
23	0x3eea9183	0.45814142
24	0xbe1fbcb8	-0.15599334
25	0x3ea315c4	0.31852543
26	0xbdf85d32	-0.121271506
27	0x3cf0d4d1	0.029398354
28	0xbdb54891	-0.088517316
29	0x3e3b9904	0.1832009
30	0x3e3c11fb	0.18366234
31	0x3dfaae35	0.122402586
32	0xbe73f5a9	-0.2382418
33	0x3e1e767f	0.1547489
34	0x3ddc99de	0.10771535
35	0x3d69e799	0.057105634
36	0x3d067201	0.032823566
37	0xbe8dc58d	-0.27689782
38	0xbe1b80ff	-0.15185927
39	0x3e34e2da	0.17664662
40	0xbe8937f3	-0.26800498
41	0x3c6de48e	0.014519824
42	0xbf1b2533	-0.60603637
43	0x3cd84f4f	0.026405005
44	0xbda67692	-0.08128084
45	0x3a9b8b9b	0.0011867167
46	0xbec31651	-0.38102964
47	0xbd8451e8	-0.06460935
48	0x3e8031ed	0.2503809
49	0xbe1fa255	-0.15589269
50	0xbd126595	-0.035741407
51	0xbe69a45d	-0.22816606
52	0x3de9b415	0.11411301
53	0xbd2fe8f4	-0.04294677
54	0x3d66abc4	0.056316152
55	0x3e875291	0.2643018
56	0xbeb1aa3c	-0.3470019
57	0xbeb935f0	-0.36173964
58	0xbe81742c	-0.25283945
59	0xbeff5862	-0.49872118
60	0xbdfc5501	-0.12320901
61	0x3df2d015	0.11856095
62	0xbeb0835e	-0.34475225
63	0xbe6a3113	-0.22870283
64	0x3eb215fa	0.34782392
65	0x3c8de5b2	0.017321441
66	0xbe1d83e8	-0.1538235
67	0xbdb85dbb	-0.09002253
68	0xbd777da0	-0.06042254
69	0x3dba3745	0.09092573
70	0x3c78c087	0.015182621
71	0xbcd9258b	-0.02650716
72	0xbeec4956	-0.461497
73	0x3c48bca4	0.012252007
74	0xbc2d8dc8	-0.010592885
75	0x3dc7e8b0	0.097611785
76	0x3dfe82db	0.124273024
77	0x3eb6679a	0.35625917
78	0xbbbe0452	-0.005798855
79	0x3e88a1c1	0.26685908
80	0x3dd38ec6	0.10329966
81	0xbc5fc7fe	-0.013658522
82	0x3daacaa1	0.0833943
83	0xbe6e4409	-0.23268141
84	0x3de98106	0.114015624
85	0xbef72be1	-0.48275664
86	0xbeac006f	-0.3359408
87	0x3e89e1fb	0.26930222
88	0xbecba089	-0.39770916
89	0x3e0b56a3	0.13607268
90	0xbdc4fc74	-0.09618464
91	0xbdd96795	-0.1061546
92	0xbcd5aec2	-0.026084308
93	0x3e79b062	0.24383691
94	0x3e457639	0.1928338
95	0x3c8f783c	0.017513387
96	0xbe958926	-0.29206198
97	0x3ef8a7b4	0.48565447
98	0xbdc855ba	-0.09781976
99	0xbe86e548	-0.26346803
100	0xbd416b69	-0.047221575
101	0xbdbba3be	-0.09162091
102	0x3d8ab732	0.06773223
103	0xbd8d066d	-0.06885991
104	0xbdd44db6	-0.10366385
105	0xbe3a71aa	-0.18207422
106	0xbd7d929a	-0.06190739
107	0xbdf639ad	-0.120227195
108	0xbe084683	-0.13308148
109	0xbe4a5bd7	-0.19761597
110	0xbebc95fa	-0.36833173
111	0xbe0f3500	-0.13985062
112	0x3e2ff91e	0.17184874
113	0x3d17dd76	0.037076436
114	0xbd173a90	-0.036921084
115	0x3ddce877	0.10786527
116	0xbe9d6d5e	-0.30747503
117	0xbe8ab586	-0.27091616
118	0x3ea885e9	0.32914665
119	0xbdd75f3b	-0.10516211
120	0x3e627cb7	0.22117887
121	0xbe8da6bd	-0.27666274
122	0xbdbaee93	-0.09127536
123	0x3db48fcc	0.088164896
124	0xbe3e50fb	-0.18585579
125	0xbc3ec9e8	-0.011644818
126	0xbd6e3896	-0.058159433
127	0xbceaffb7	-0.028686387
128	0x3ebd2c42	0.3694783
129	0xbe2fd381	-0.17170526
130	0xbeee5c3e	-0.4655475
131	0xbda80293	-0.08203616
132	0xbd2e8739	-0.042609427
133	0xbd944aa7	-0.07240801
134	0x3f3f82c4	0.7480891
135	0xbd986cc6	-0.07442622
136	0xbdba14d9	-0.090860076
137	0x3f12e450	0.5737963
138	0xbe35274d	-0.17690773
139	0xbd36e271	-0.044649545
140	0x3dd2fb62	0.10301854
141	0x3db91ab3	0.090382956
142	0xbeb32618	-0.3499
143	0xbd9079be	-0.070544705
144	0x3bb77f82	0.005599917
145	0xbd5bfdae	-0.053708725
146	0x3edfa105	0.43677536
147	0x3da1c6a4	0.07899216
148	0xbdf2d50a	-0.1185704
149	0xbebf0748	-0.37310243
150	0xbdf45ee5	-0.11932162
151	0x3d4ae306	0.049532913
152	0xbc821174	-0.015877463
153	0xbd084f3b	-0.033278685
154	0x3d9e9643	0.07743504
155	0x3e84c1a5	0.2592899
156	0xbd44b792	-0.04802663
157	0xbe8605d9	-0.26176336
158	0xbe5f8d8a	-0.21831337
159	0xbeca1382	-0.39468008
160	0xbe6a209d	-0.22864003
161	0x3e784b82	0.24247554
162	0x3c7461bf	0.014915883
163	0xbe883ab7	-0.26607296
164	0xbdadf576	-0.084940836
165	0x3ca05af8	0.019574627
166	0xbef5337d	-0.47890845
167	0x3eb9cee4	0.36290658
168	0xbeaa394c	-0.3324684
169	0x3c914121	0.017731251
170	0xbec4568c	-0.3834728
171	0xbeb9789f	-0.3622484
172	0x3d354d4d	0.044263173
173	0xbe3ce581	-0.18446924
174	0xbec24b0a	-0.37947875
175	0x3e81ab2d	0.2532591
176	0x3d0fc91f	0.035103913
177	0x3c93619f	0.017990885
178	0x3e679061	0.2261367
179	0xbce9d534	-0.028544046
180	0xbdbb839b	-0.09155961
181	0x3b0f1d26	0.0021837442
182	0xbd392e2b	-0.045210045
183	0x3d80608d	0.062684156
184	0xbe1cf477	-0.15327631
185	0xbe19d55a	-0.15022793
186	0x3ecd8ee9	0.40148094
187	0xbf1c6902	-0.6109773
188	0x3d6e5f1f	0.058196183
189	0xbe51474c	-0.20437354
190	0x3e460aba	0.1934003
191	0x3e622111	0.22082926
192	0x3e084bd2	0.13310173
193	0x3d4c4fbb	0.049880724
194	0xbe82892f	-0.25495288
195	0xbee4c119	-0.44678572
196	0xbe16763f	-0.14693545
197	0x3e84fc01	0.25973514
198	0xbe9401b7	-0.28907558
199	0xbdc30244	-0.095219165
200	0xbcae3b0b	-0.021268388
201	0x3dd5d3c5	0.104407825
202	0xbe07368f	-0.13204406
203	0xbdfedd11	-0.12444509
204	0xbe350a6c	-0.17679757
205	0xbe878a2c	-0.26472604
206	0xbd548144	-0.05188109
207	0x3e2af4f7	0.16695009
208	0xbe6639b5	-0.22482951
209	0x3d57acd9	0.052655075
210	0x3d063d0a	0.032773055
211	0x3ea25350	0.31704187
212	0x3e8f0ca6	0.27939337
213	0x3e5ce248	0.21570694
214	0x3e48bfcc	0.19604415
215	0x3d63f188	0.055650264
216	0xbe096df5	-0.13420852
217	0x3d05bce6	0.03265085
218	0xbe92b853	-0.28656253
219	0x3e4cb9e9	0.19992794
220	0x3ac160a7	0.0014753536
221	0xbe196b7a	-0.14982405
222	0xbe5f5394	-0.21809226
223	0x3e23e823	0.16006522
224	0x3b1b521f	0.002370007
225	0xbeef53c3	-0.46743593
226	0x3ed30bc1	0.41219905
227	0xbed787a9	-0.42095688
228	0xbe2e1c03	-0.17002873
229	0xbdc9dd56	-0.098566696
230	0xb9cb6b94	-0.0003879933
231	0x3da08fd5	0.07839934
232	0xbdce65c4	-0.10078004
233	0x3e53574b	0.20638768
234	0x3c8c4ff9	0.017127978
235	0xbe758919	-0.2397808
236	0xbe174b96	-0.14774927
237	0x3d23cf0e	0.039992385
238	0x3eb04e40	0.344347
239	0x3d6aa4f6	0.057286225
240	0xbe49f9c0	-0.19724178
241	0xbced1f4f	-0.028945593
242	0xbe0ee7cf	-0.13955615
243	0x3e37cf26	0.17950115
244	0xbe98eae4	-0.29866707
245	0x3d004905	0.031319637
246	0x3e04ec16	0.12980685
247	0x3dc163ad	0.0944284
248	0xbe7768ec	-0.24161118
249	0x3d95e66f	0.07319342
250	0xbeb12a99	-0.34602812
251	0x3df67914	0.120348126
252	0xbee44b82	-0.44588858
253	0xbe749444	-0.23884684
254	0xbd5a7e0d	-0.053342868
255	0x3ea383d4	0.31936514

weight f4 [256, 256]
0	0x3dac8443	0.084236644
1	0xbdd5c4d3	-0.10437932
2	0x3e85dc23	0.26144513
3	0xbe9fb899	-0.31195524
4	0xbe8daf68	-0.27672887
5	0x3e9dea22	0.30842692
6	0x3b83a90f	0.004017956
7	0x3db30425	0.08741025
8	0x3e968adb	0.29402813
9	0x3e036ad5	0.12833722
10	0x3c989617	0.018626256
11	0xbe77b80b	-0.241913
12	0x3e2e2751	0.17007186
13	0xbdf4a7be	-0.11946057
14	0xbdd3e100	-0.1034565
15	0x3d5b95c4	0.053609625
16	0xbebe3847	-0.3715231
17	0xbe9c162e	-0.30485672
18	0x3d2d6319	0.042330835
19	0x3e017019	0.12640418
20	0xbe535a67	-0.20639955
21	0xbe166df7	-0.14690386
22	0xbe7dff61	-0.2480445
23	0x3ebe502f	0.3717055
24	0x3e25a852	0.1617749
25	0xbf7272b2	-0.9470626
26	0xbe3c85f9	-0.18410482
27	0xbeecd018	-0.46252513
28	0xbf341ebf	-0.70359415
29	0x3dde891a	0.10865994
30	0x3e1c625e	0.15271899
31	0x3dcf260b	0.10114678
32	0xbe1ddfc6	-0.15417394
33	0x3cbffecd	0.023436928
34	0x3ea31106	0.31848925
35	0x3e5e6ced	0.2172124
36	0xb95bb0d9	-0.00020951348
37	0x3dddb67e	0.10825823
38	0x3d8bceb0	0.06826532
39	0x3e25d44d	0.16194268
40	0x3db38f97	0.08767622
41	0xbef725b7	-0.48270962
42	0x3c9731ef	0.018456427
43	0xbccd7af7	-0.025083048
44	0xbf06a1ab	-0.52590436
45	0xbb535057	-0.0032243931
46	0xbea94ecf	-0.3306794
47	0x3d1cdbed	0.038295675
48	0xbe7a6526	-0.24452648
49	0xbe1ff892	-0.15622166
50	0xbeedb9a1	-0.46430686
51	0xbe9c7eea	-0.30565578
52	0x3d3708d6	0.04468616
53	0x3ddafc70	0.1069268
54	0x3d5180c4	0.05114819
55	0x3e1807f8	0.1484679
56	0x3d262fc3	0.040572893
57	0x3db3ddc2	0.08782531
58	0xbded0de2	-0.115749136
59	0x3d5776ed	0.05260365
60	0xbfca97b7	-1.582755
61	0x3cd648a4	0.026157685
62	0xbe82485a	-0.25445825
63	0xbc4194c4	-0.011815254
64	0xbd6b49da	-0.057443477
65	0x3ee81766	0.45330352
66	0xbda313b8	-0.079627454
67	0xbdfc3b9c	-0.12316057
68	0x3ae2b6dd	0.0017296929
69	0x3dd367b5	0.10322515
70	0x3d956180	0.07293987
71	0xbebf8e5c	-0.374133
72	0x3d267c42	0.040645845
73	0x3ef9d535	0.48795477
74	0xbedfb29f	-0.43690965
75	0xbdfd02b7	-0.123540334
76	0x3da2164c	0.07914409
77	0x3de6e89c	0.112748355
78	0xbe43a854	-0.19107181
79	0x3e2c6b2e	0.16837761
80	0x3e75caf4	0.24003202
81	0x3df52ae0	0.119710684
82	0x3e0037b1	0.12521245
83	0xbe48d35e	-0.1961188
84	0xbd7eebf5	-0.062236745
85	0xbb6f9fed	-0.003656383
86	0x3ded6e60	0.11593318
87	0x3eb34310	0.35012102
88	0xbdcebd10	-0.100946546
89	0xbddae5d4	-0.106883675
90	0xb929ce7c	-0.00016194017
91	0x3d1f3990	0.038873255
92	0xbe4d8a0a	-0.20072189
93	0xbecd63e2	-0.40115267
94	0x3dae2b19	0.08504314
95	0xbe0017ff	-0.12509154
96	0xbc88bc26	-0.016691279
97	0x3ea90e60	0.3301878
98	0x3ec9afcb	0.39391932
99	0xbdbafb09	-0.091299124
100	0xbe5c24aa	-0.21498361
101	0xbe3c0ffc	-0.18365473
102	0x3e69ca49	0.22831072
103	0x3c5aac03	0.013346675
104	0x3d96fe96	0.07372777
105	0xbe473dc7	-0.1945716
106	0x3e862f9c	0.26208198
107	0x3c6bade7	0.014384723
108	0xbe5591eb	-0.20856445
109	0xbd31e874	-0.043434575
110	0xbe6bbcb1	-0.23021199
111	0xbece33c0	-0.40273857
112	0xbdfad94e	-0.12248479
113	0x3d777dea	0.060422815
114	0x3e9de584	0.3083917
115	0xbf2ec3c0	-0.6826744
116	0x3eb39cb2	0.35080487
117	0x3df4558b	0.119303785
118	0xbe135c78	-0.14390743
119	0xbb653093	-0.003497158
120	0x3ec13278	0.37733817
121	0xbca9c867	-0.020725442
122	0x3be222bc	0.0069011133
123	0xbe9fbb85	-0.31197754
124	0xbef57dae	-0.47947448
125	0xbcb7cd05	-0.022436628
126	0xbdb5fec9	-0.08886487
127	0xbe1fe499	-0.15614547
128	0x3e238ae7	0.15970956
129	0xbe45c4ca	-0.1931335
130	0xbe05e861	-0.13076927
131	0xbe95861e	-0.29203886
132	0x3e884bde	0.26620382
133	0xbc52f91d	-0.012876776
134	0x3ec9976c	0.39373338
135	0x3df66b7b	0.12032219
136	0x3e0c999f	0.13730477
137	0x3e803fe2	0.2504874
138	0xbd122e71	-0.03568882
139	0xbd4c3346	-0.049853586
140	0xbc142018	-0.009040855
141	0x3e01b159	0.12665309
142	0x3f06c57a	0.52645075
143	0xbe50d121	-0.20392276
144	0x3e841b38	0.25802016
145	0xbecd0892	-0.400456
146	0x3e80613d	0.25074187
147	0x3eb10b92	0.3457914
148	0xbfc251b0	-1.5181179
149	0x3cf9e030	0.030502409
150	0xbed0f290	-0.4081006
151	0xbe729e65	-0.23693235
152	0x3dc47d76	0.09594242
153	0xbdb5aa75	-0.08870403
154	0xbe87faae	-0.2655844
155	0x3e0c7748	0.13717377
156	0xbe87ccb8	-0.26523376
157	0x3df1a761	0.11799503
158	0x3ee9e1a6	0.4567997
159	0xbd54db52	-0.051966973
160	0x3e9206ff	0.28520963
161	0x3e370b3f	0.17875384
162	0x3d28ad17	0.041180696
163	0x3de697be	0.11259411
164	0x3f2bc2ab	0.67093915
165	0xbd7a9caa	-0.061184563
166	0xbdd4bc62	-0.10387494
167	0xbe3710bb	-0.17877476
168	0xbdfd2353	-0.12360253
169	0x3e0cd94b	0.13754766
170	0x38fa55d2	0.00011936914
171	0xbe4c510d	-0.19952793
172	0x3e74fb79	0.23924054
173	0x3e93a01a	0.28833085
174	0x3e3c6d7a	0.18401137
175	0x3d5cb69f	0.0538851
176	0x3de2b754	0.11070123
177	0x3e2cd392	0.16877583
178	0xbe0e248d	-0.1388113
179	0xbd6ee3a6	-0.05832257
180	0x3de0fbeb	0.109855495
181	0xbd6172e0	-0.055041194
182	0xbedf61c9	-0.43629292
183	0xbda9a942	-0.082842365
184	0x3e70a031	0.23498608
185	0x3e31f943	0.17380242
186	0xbedab62a	-0.42717105
187	0xbe845a0f	-0.2584996
188	0xbdbb8074	-0.0915536
189	0xbe7e4793	-0.24831991
190	0xbe41b80a	-0.18917862
191	0x3e371e4e	0.17882654
192	0x3e982929	0.29718903
193	0xbd077c54	-0.033077553
194	0xbe59ee3e	-0.21282288
195	0xbdf652e1	-0.12027527
196	0xbe73116b	-0.23737113
197	0xbd0d44e6	-0.034489535
198	0xbe5d5a46	-0.21616468
199	0x3cb1db12	0.021710906
200	0xbbd6f00c	-0.0065593775
201	0x3e9cbfbb	0.3061503
202	0x3e25c5c9	0.1618873
203	0x3db669ec	0.08906922
204	0x3c921751	0.017833384
205	0xbea6b23c	-0.32557857
206	0x3e3fa35f	0.18714665
207	0x3e3dddbf	0.1854162
208	0x3ec776c6	0.38957804
209	0xbe2a2005	-0.16613777
210	0x3d305cea	0.04305736
211	0x3dde0e60	0.108425856
212	0x3d12c195	0.035829145
213	0xbf11a9aa	-0.5689951
214	0x3e40a431	0.18812634
215	0x3de9e609	0.11420829
216	0x3d23bf3b	0.039977293
217	0x3bba7a4a	0.0056908475
218	0xbc81d2c6	-0.015847575
219	0x3e3cd366	0.18440017
220	0xbd9d4f9b	-0.07681199
221	0x3f170891	0.58997446
222	0x3e8940b7	0.26807186
223	0x3edf7c24	0.436494
224	0x3eb72180	0.35767746
225	0xbf01c0f4	-0.5068505
226	0x3e018444	0.12648112
227	0xbec0aac5	-0.37630287
228	0x3db55be5	0.08855418
229	0xbb884f69	-0.004159857
230	0x3e3df7b6	0.18551525
231	0xbce1577a	-0.027507532
232	0x3e048f57	0.12945305
233	0x3e538f41	0.20660116
234	0xbdbefaa1	-0.093251474
235	0xbe7a8aaf	-0.24466966
236	0xbe48eb56	-0.19621024
237	0x3ead2592	0.33817726
238	0xbe19f951	-0.15036513
239	0x3ec8f8ff	0.3925247
240	0xbd5c783c	-0.053825602
241	0x3e6b1bdd	0.22959848
242	0x3e40f8a5	0.1884485
243	0x3cadc45f	0.021211801
244	0xbe991619	-0.29899672
245	0x3cc28cb9	0.023748742
246	0xbeaecc30	-0.34140158
247	0xbe413fb6	-0.1887196
248	0x3cec739b	0.028863719
249	0xbe4f410f	-0.20239662
250	0xbc58a927	-0.013223923
251	0xbe59d1f2	-0.21271494
252	0xbdf41398	-0.119178
253	0xbda2cef1	-0.07949627
254	0x3e6c585f	0.23080586
255	0xbd56e96a	-0.052468695

bias f4 [256]
0	0x3fa8ddfd	1.3192745
1	0x3fd352b6	1.6509616
2	0x3fb3d96a	1.4050725
3	0x3f8d29f6	1.102843
4	0xbd1b091c	-0.037850484
5	0xbf20b8f0	-0.6278219
6	0x3e84ddb0	0.25950384
7	0xbf44ce8b	-0.7687766
8	0xbeec2f91	-0.4613004
9	0x3fdbc572	1.716963
10	0xbf80d100	-1.0063782
11	0x3ec0c366	0.37649077
12	0x3fe953a2	1.8228648
13	0xbd880bb8	-0.0664286
14	0x3f106b83	0.5641405
15	0x3fc22c50	1.5169773
16	0x3ef8f103	0.48621377
17	0x3f89eb5f	1.0774955
18	0x3e9fb3e2	0.31191927
19	0xbe21a1aa	-0.15784326
20	0xbc04e244	-0.008110587
21	0x3fc90a63	1.5706295
22	0x3ea43201	0.320694
23	0x3d2dbafc	0.04241465
24	0x3fbce799	1.4758178
25	0xbee8bec8	-0.45458055
26	0x3e262a32	0.16227034
27	0x3f7b6a19	0.9820877
28	0x3e15bb3d	0.14622207
29	0x3f90474e	1.127176
30	0x3dfa2088	0.12213236
31	0x3f7a3590	0.9773798
32	0x3f1550fe	0.5832671
33	0x3ed8320f	0.42225692
34	0x3ec078d2	0.3759218
35	0xbf58b514	-0.84651303
36	0x3f8c214f	1.0947665
37	0xbf2931cd	-0.66091615
38	0x3fe4e5e1	1.7882653
39	0x3d9ebdff	0.07751083
40	0x3f9bd2b6	1.2173679
41	0xbda505a7	-0.08057719
42	0xbf410a2c	-0.75406146
43	0xbf01a013	-0.5063488
44	0x3f938bc5	1.1527029
45	0x3f4812e4	0.78153825
46	0x3edc7496	0.43057698
47	0xbf4abd66	-0.7919525
48	0x3cff5d27	0.031172348
49	0x3fc02c33	1.5013489
50	0xbe8f0620	-0.2793436
51	0x3fe1d175	1.7642046
52	0xbebf1039	-0.37317064
53	0xbf4b909d	-0.7951754
54	0xbf8f1ea1	-1.1181222
55	0x3fa15b3f	1.2605971
56	0x3ef5860c	0.47953832
57	0x3e920f75	0.28527418
58	0x3f275057	0.65356964
59	0xbf53c906	-0.8272861
60	0x3f9b81bf	1.214897
61	0x3ed74cfc	0.42050922
62	0x3e8297c4	0.25506413
63	0xbe734a0f	-0.2375872
64	0x3d3d2758	0.0461801
65	0x3f29136e	0.6604527
66	0x3f87db87	1.061387
67	0x3f3a438f	0.72759336
68	0xbe31f8c4	-0.17380053
69	0xbec97549	-0.39347294
70	0x3e835a4b	0.25654826
71	0x3d0cc670	0.034368932
72	0xbd82d492	-0.06388201
73	0x3f93b617	1.1539944
74	0x3f4ef221	0.8083821
75	0x3f615882	0.8802568
76	0x3f256b7a	0.6461712
77	0xbcbf1e19	-0.023329781
78	0xbd7815d9	-0.06056771
79	0x3f8168cb	1.0110105
80	0x3d4cb1c7	0.04997423
81	0x3f8c800f	1.097658
82	0x3c979c09	0.01850702
83	0x3efa13a3	0.48843107
84	0x3f0d9fcf	0.55321974
85	0x3f8630ce	1.0483644
86	0xbf37b998	-0.7176757
87	0xbf50f069	-0.81616837
88	0x3faf4852	1.3693945
89	0xbe45d7d2	-0.1932061
90	0xbe05cfe4	-0.13067585
91	0xbf176c06	-0.59149206
92	0x3f9c3ff1	1.2207013
93	0x3fade1c7	1.3584527
94	0xbf78010b	-0.9687659
95	0x3ef26786	0.47344607
96	0x3fb9c3e9	1.4512912
97	0x3fb5af26	1.4194076
98	0x3f972953	1.1809486
99	0xbf53ac1b	-0.8268449
100	0xbf241995	-0.64101535
101	0x3f9b4dcf	1.213312
102	0x3f9c2788	1.2199564
103	0x3e8bf9d4	0.2733904
104	0xbf43ffd1	-0.7656222
105	0xbe294485	-0.16530044
106	0xbf3d3a0e	-0.7391671
107	0xbf342298	-0.70365286
108	0x3f4ed755	0.8079732
109	0x3e9f4021	0.31103614
110	0x3ed47e2b	0.4150251
111	0x3e1badbe	0.15202996
112	0x3f0245f0	0.50887966
113	0x3ef2d94b	0.47431406
114	0x3f89096c	1.0706
115	0x3ed86d74	0.42271006
116	0x3f1ce07c	0.61280036
117	0xbf53181f	-0.8245868
118	0x3fa0ddd0	1.2567692
119	0x3f81715d	1.0112721
120	0xbf2062fc	-0.6265104
121	0xbf4d37cf	-0.8016328
122	0xbe0197af	-0.12655519
123	0xbecd5390	-0.40102816
124	0xbead12fb	-0.33803543
125	0xbf0552cf	-0.5207948
126	0xbf28c647	-0.6592755
127	0x3f35bf8e	0.70995414
128	0x3de96d25	0.11397771
129	0xbdd4ac97	-0.103844814
130	0xbf06343c	-0.52423453
131	0xbe982c1c	-0.29721153
132	0x3f2f67ef	0.68517965
133	0xbf731478	-0.9495311
134	0xbd614222	-0.05499471
135	0x3e6503f9	0.22364797
136	0x3fb3b602	1.4039919
137	0x3f9ad617	1.2096585
138	0x3f436525	0.7632621
139	0x3e0070e0	0.12543058
140	0x3ebb57c8	0.3659041
141	0x3fa059f1	1.2527448
142	0xbd4ef467	-0.05052605
143	0x3fbbe537	1.4679326
144	0x3fe3d3f0	1.7799053
145	0xbc18fbba	-0.00933736
146	0x3fbbb55f	1.4664725
147	0x3f8e835d	1.1133839
148	0x3eec8da6	0.4620182
149	0x3eb11b32	0.3459106
150	0x3e5509fd	0.20804591
151	0xbdf6515f	-0.12027239
152	0x3fd0c5af	1.6310328
153	0xbed19186	-0.40931338
154	0x3fc28d39	1.5199348
155	0x3d0b4b04	0.034007087
156	0x3effa3fc	0.49929798
157	0xbf2ae628	-0.6675744
158	0xbd256640	-0.040380716
159	0xbf739503	-0.9514925
160	0x3c2cb3df	0.0105409315
161	0xbe9b2026	-0.30297965
162	0xbf62a6ee	-0.88535964
163	0xbeb98ea2	-0.36241633
164	0x3f855604	1.0416875
165	0x3d9f76a3	0.077863
166	0x3f47ed41	0.78096396
167	0x3e800ce9	0.2500985
168	0x3f590c33	0.8478424
169	0x3f886923	1.0657085
170	0xbf25dd8e	-0.6479119
171	0x3fcd96c6	1.6061637
172	0x3b988526	0.0046545444
173	0x3fb31a99	1.3992492
174	0x3f536bad	0.82586175
175	0x3fd9500a	1.6977551
176	0x3fa8e186	1.3193824
177	0x3f3770df	0.716566
178	0xbf1246d9	-0.57139355
179	0xbe6cbeb3	-0.23119621
180	0x3fcc3d88	1.5956278
181	0xbf409cd7	-0.7523932
182	0x3f14117b	0.57839173
183	0xbd2eb98f	-0.04265743
184	0x3d9aadea	0.07552703
185	0x3f4eca48	0.80777407
186	0x3f94967e	1.1608427
187	0xbeaf8985	-0.34284607
188	0x3fbc6292	1.4717581
189	0x3e3629d7	0.17789398
190	0x3faeaddb	1.3646806
191	0x3e418469	0.18898167
192	0x3fbddad5	1.4832407
193	0xbf2e9130	-0.6819029
194	0x3ec11b29	0.37716034
195	0x3f7e9239	0.9944187
196	0x3f993fa5	1.1972548
197	0xbf2d0042	-0.6757852
198	0x3f4323cb	0.7622649
199	0xbe856265	-0.26051632
200	0xbf300b69	-0.6876741
201	0x3f4d2572	0.8013526
202	0xbe117372	-0.14204195
203	0xbde14acf	-0.11000597
204	0xbf098406	-0.53717077
205	0xbc398e01	-0.01132536
206	0x3fa07148	1.2534571
207	0x3fde45fd	1.7365109
208	0x3fb8942e	1.4420221
209	0x3fa2b090	1.2710133
210	0x3efa9cc7	0.48947737
211	0x3f48f381	0.7849656
212	0x3e69c1e2	0.22827867
213	0x3f5bf9a9	0.85927826
214	0xbed8251c	-0.42215812
215	0x3fccb2e9	1.5992099
216	0x3ec9debe	0.3942775
217	0x3fa55e8b	1.2919477
218	0x3f32ccc5	0.69843704
219	0xbf4058ae	-0.75135314
220	0x3fb3cc15	1.4046656
221	0x3fc86a14	1.5657372
222	0xbc1416c8	-0.009038635
223	0x3ec21756	0.3790843
224	0x3fc507f9	1.5393058
225	0xbdf821cd	-0.12115822
226	0x3f09a1c1	0.5376244
227	0x3dded44b	0.108803354
228	0x3ee5cc11	0.44882253
229	0x3f04962d	0.5179165
230	0x3da128e2	0.07869126
231	0xbf065b96	-0.524835
232	0xbf1d5fd9	-0.61474377
233	0x3f80d51d	1.0065037
234	0x3faf7121	1.3706399
235	0x3e9e1651	0.308764
236	0x3fe447c9	1.7834407
237	0x3e4aadb7	0.1979283
238	0x3faf3c8a	1.369035
239	0xbf8bf546	-1.0934227
240	0xbf37dc20	-0.7182026
241	0x3db4ada9	0.088221855
242	0x3f911684	1.1334996
243	0x3ebd6cdf	0.36997125
244	0xbf225526	-0.63411176
245	0x3f149867	0.5804505
246	0xbe1016f6	-0.14071259
247	0x3f72cbb7	0.94842094
248	0x3e246f40	0.16058064
249	0xbd99ce3d	-0.0751004
250	0x3e8335a4	0.25626862
251	0x3f9d73c9	1.230096
252	0x3df2506c	0.118317455
253	0x3d855f3b	0.065123044
254	0xbe69af0c	-0.22820681
255	0x3e692817	0.227692

weight f4 [1, 256]
0	0x3e5271d4	0.20551234
1	0x3ea77d92	0.3271299
2	0x3ea5834c	0.32326734
3	0x3da44813	0.080215596
4	0xbed0ac2b	-0.40756354
5	0xbe34a873	-0.17642383
6	0xbfeaf821	-1.8356973
7	0xbe42809b	-0.18994372
8	0xbf095b19	-0.5365463
9	0x3ebc265c	0.36748016
10	0xbe2cb027	-0.16864072
11	0xc04352b8	-3.0519238
12	0x3ee340e6	0.4438545
13	0x40488cd5	3.1335957
14	0x3ed49188	0.41517282
15	0x3e8576aa	0.26067096
16	0x3f206b6b	0.62663907
17	0x3edc2a5e	0.43001074
18	0xc0401233	-3.0011108
19	0x4043b1c8	3.057726
20	0xc01d941b	-2.4621646
21	0x3e1b5d49	0.15172304
22	0xc012765b	-2.2884738
23	0xc04e1a1e	-3.220344
24	0x3dc326b6	0.09528868
25	0xbedcfbfd	-0.43161002
26	0x3f3eaea6	0.7448524
27	0x3d81b46f	0.06333243
28	0xc00ad996	-2.1695304
29	0x3e25709e	0.16156241
30	0xc0037675	-2.054105
31	0x3e7aa563	0.24477153
32	0xbff943dc	-1.9473834
33	0xc06d5689	-3.7084067
34	0xc092b2bc	-4.584318
35	0xbe75731d	-0.23969693
36	0x3dd0d56e	0.101969585
37	0xbdbce4bd	-0.09223316
38	0x3f0280b5	0.5097764
39	0xc019f6af	-2.4056814
40	0x3e65e2f6	0.2244986
41	0xbe75a2e4	-0.23987919
42	0xbe61e7a8	-0.22061026
43	0xbf00c466	-0.5029968
44	0x3e805a8a	0.25069076
45	0x3e82cd37	0.25547192
46	0xbfb65dfd	-1.4247433
47	0xbe41fbbf	-0.1894369
48	0xbfac3b75	-1.3455645
49	0x3edeb897	0.43500206
50	0x4033e32c	2.8107405
51	0x3eacbe32	0.33738858
52	0xbe9d528f	-0.3072705
53	0xbe949380	-0.29018784
54	0xbe1a172d	-0.15047903
55	0x3d2d21d2	0.04226858
56	0x3ed1a036	0.40942544
57	0xbfd0647e	-1.6280668
58	0x3d86b1c5	0.065768756
59	0xbead6f3f	-0.33873937
60	0x3e063cac	0.13109082
61	0xc08d7326	-4.420306
62	0x3ea661dd	0.3249654
63	0xbf432355	-0.7622579
64	0xbef5f54a	-0.48038703
65	0x3d951a8d	0.07280455
66	0x3df72bf3	0.120689295
67	0x3e08ddab	0.1336581
68	0xbef4f7db	-0.4784535
69	0xbe6c6795	-0.23086388
70	0xc001d3b6	-2.0285468
71	0xbfd39df8	-1.6532583
72	0xbfa69551	-1.3014318
73	0x3ba001b7	0.004883017
74	0x3e25238f	0.16126846
75	0x3e52fe58	0.20604837
76	0x3ecc78ac	0.39935815
77	0xbff232ce	-1.8921754
78	0xbeecd0c7	-0.46253034
79	0x3dbfd0f6	0.09366028
80	0xc03d65e3	-2.9593437
81	0x3e09b88b	0.13449304
82	0x40295345	2.6457074
83	0x3e89a768	0.26885533
84	0x3e2b0b95	0.16703637
85	0x3e3af80e	0.18258688
86	0xbe3480b2	-0.17627218
87	0x40797a51	3.8980906
88	0x3def66ea	0.11689551
89	0xbefec558	-0.49759936
90	0xc04a5d9f	-3.1619642
91	0xbf2345b0	-0.6377821
92	0x3e0aabd1	0.13542105
93	0x3e26960e	0.16268179
94	0xbed6e8a8	-0.41974378
95	0xbfba4dd0	-1.4554996
96	0x3e68930b	0.22712342
97	0x3e61876e	0.22024319
98	0x3dbcab77	0.09212392
99	0xbea9ca3e	-0.3316211
100	0xbe70278d	-0.23452587
101	0x3d87618a	0.06610401
102	0x3e00e225	0.12586267
103	0xc00c333d	-2.1906273
104	0xbe6b6965	-0.22989424
105	0xbf3ca9e9	-0.7369676
106	0xbe20ed94	-0.15715629
107	0xbdd5a8cc	-0.10432586
108	0x3dde1b59	0.1084506
109	0xc00bbddf	-2.1834638
110	0x3e953071	0.2913852
111	0xc0574383	-3.3634956
112	0x3ee097da	0.43865854
113	0xc0330417	-2.7971246
114	0x3e77064d	0.24123497
115	0x3de2304e	0.1104437
116	0x3f1ff533	0.6248352
117	0xbe4e9dad	-0.20177336
118	0x3e8b9dab	0.2726873
119	0x3dca0b89	0.098654814
120	0xbe527521	-0.20552494
121	0xbe91f20e	-0.28504986
122	0xc01c6770	-2.4438133
123	0xbf230043	-0.63672274
124	0xbeeab20c	-0.45838964
125	0xbecf97e4	-0.4054557
126	0xbee2f56b	-0.44327864
127	0x3df6e857	0.12056034
128	0xc0b588e7	-5.6729617
129	0xc00fb0de	-2.24517
130	0xbe439854	-0.19101077
131	0x40a6fb66	5.2181883
132	0x3e68595c	0.22690338
133	0xbee76874	-0.4519688
134	0xc0282b55	-2.6276448
135	0xc0e83d93	-7.2575164
136	0x3e2d546d	0.16926737
137	0x3d86f772	0.06590165
138	0x3e5c2159	0.21497096
139	0xbfd0eb14	-1.632174
140	0x3d8bcb88	0.0682593
141	0x3cc6d4c9	0.024271386
142	0xbf1a6c02	-0.60321057
143	0x3db88439	0.090095945
144	0x3ea8526c	0.32875383
145	0xbed83086	-0.4222452
146	0x3ecb2779	0.39678553
147	0x3e084505	0.13307579
148	0x3e994850	0.29937983
149	0xc0212048	-2.5175953
150	0xc0859406	-4.1743193
151	0xbe14124e	-0.14460108
152	0x3e8c9401	0.27456668
153	0xbf01350e	-0.5047158
154	0x3da5c513	0.080942295
155	0xbfdb9df3	-1.7157577
156	0xbdd306a3	-0.10304
157	0xbe6d0b5f	-0.23148869
158	0xc01f8d2b	-2.4929912
159	0xbe04c6b5	-0.12966426
160	0xbffbc9f7	-1.967101
161	0xbf1959fd	-0.59902936
162	0xbddca849	-0.10774285
163	0xbebc3f9c	-0.3676728
164	0x3d5f8da6	0.054578446
165	0xc04d3e8f	-3.2069433
166	0x3e554265	0.20826109
167	0xc0287e21	-2.6326983
168	0x3ea52a67	0.32258913
169	0x3d99270d	0.074781515
170	0x3d9658f3	0.073411845
171	0x3ebd3897	0.36957237
172	0xbff98d5a	-1.9496262
173	0x3e4cf492	0.20015171
174	0x3dd58131	0.10425032
175	0x3e6b4fcc	0.22979659
176	0x3e69f4eb	0.22847335
177	0x3efd2a38	0.49446273
178	0xbe994493	-0.2993513
179	0xbf655ba5	-0.89592963
180	0x3e7974f7	0.24361025
181	0xbe76f897	-0.24118267
182	0xc03bc75f	-2.9340436
183	0x3f4ef39d	0.80840474
184	0xbf81b803	-1.0134281
185	0x3e1b40d2	0.15161446
186	0x3f3f9173	0.7483131
187	0xbeeab5fc	-0.45841968
188	0x3ecc4728	0.39898038
189	0xc07f4192	-3.988377
190	0x3e8da5ac	0.2766546
191	0xc0111d7a	-2.267424
192	0x3ddb84e9	0.1071871
193	0xbe349a47	-0.17636977
194	0xbfc48d4a	-1.5355618
195	0x3dafdb28	0.085867226
196	0x3d74b686	0.05974438
197	0xbe6d73e6	-0.23188743
198	0x3ee2bab3	0.44283065
199	0x4077980d	3.8686554
200	0xbdf674b4	-0.12033978
201	0x3e46aba8	0.19401419
202	0xbefa0003	-0.48828134
203	0xbf3499b8	-0.70547056
204	0xbf0c5e09	-0.54830986
205	0xbf96297d	-1.1731411
206	0x3e789d4a	0.24278751
207	0x3ed006cb	0.40630183
208	0x3e5faf50	0.2184422
209	0x3e3a8d6c	0.1821801
210	0x3e73713d	0.23773666
211	0x3d7deb74	0.061992124
212	0xc065e7b4	-3.592267
213	0x3fd491ff	1.6607054
214	0xbed6568f	-0.41862914
215	0x3e976a2a	0.29573184
216	0x3ef3718f	0.47547576
217	0x3dc15d63	0.0944164
218	0x3e8aef7e	0.27135843
219	0xbe7ea503	-0.24867634
220	0x3d2321f3	0.0398273
221	0x3ea59d44	0.32346547
222	0xbf91f597	-1.1403073
223	0x3f553abf	0.83292764
224	0x3e550d5e	0.2080588
225	0xbf32151f	-0.6956348
226	0x3ebe99ca	0.37226707
227	0xc0808200	-4.015869
228	0x3ec07275	0.37587324
229	0xc00fa334	-2.2443361
230	0xc0100ffc	-2.2509756
231	0xbef23ed6	-0.47313565
232	0xbe63e8b8	-0.22256744
233	0x3da7f659	0.08201284
234	0x3dc97cd3	0.098382615
235	0x3ec767f8	0.3894651
236	0x3ec3f42b	0.38272223
237	0xbf984277	-1.1895283
238	0x3e4cc3b3	0.19996528
239	0xbe8c4c88	-0.2740214
240	0xbe380f4e	-0.17974588
241	0xc04c42e9	-3.1915839
242	0x3dc1c1c0	0.09460783
243	0x3e7cc446	0.24684247
244	0xbdcd4cb0	-0.100243926
245	0x3ed5cb45	0.41756645
246	0xc0184650	-2.3792915
247	0x3ddd58ee	0.108079776
248	0xbfc89255	-1.5669657
249	0xc0149c54	-2.3220415
250	0xc01072a5	-2.2569973
251	0x3e0a9565	0.13533552
252	0xbf5fc193	-0.87404746
253	0x40112a9a	2.2682252
254	0x404bbab4	3.1832705
255	0x400532ad	2.081218

obs_std f4 [41]
0	0x3d0c3aaf	0.034235653
1	0x3de62ef8	0.11239427
2	0x3e040905	0.12894066
3	0x3cf8003f	0.030273555
4	0x3fbb86a6	1.4650466
5	0x3fd3ddde	1.6552083
6	0x3f9feb0f	1.2493609
7	0x3e9c50ff	0.30530545
8	0x3e625098	0.22101057
9	0x3e8f038c	0.27932394
10	0x3e9b1fe6	0.30297774
11	0x3e8d6019	0.2761238
12	0x3e977a88	0.2958567
13	0x3e9ba598	0.30399776
14	0x3e67f40d	0.22651692
15	0x3e8fa94c	0.2805885
16	0x3e98c831	0.29840234
17	0x3e8f9605	0.28044143
18	0x3e98077a	0.29693204
19	0x4061f7c8	3.5307484
20	0x4056974b	3.3529842
21	0x40c6e162	6.2150126
22	0x40b0524b	5.5100455
23	0x40dbb0b5	6.8653207
24	0x40a34bc0	5.102997
25	0x4061a761	3.525841
26	0x405981fc	3.3985586
27	0x40c88a54	6.2668858
28	0x40b140c7	5.5391574
29	0x40dc4b29	6.884175
30	0x40a2bf30	5.0858383
31	0x3f271595	0.65267307
32	0x3f41ec0b	0.757508
33	0x3e62b67f	0.22139929
34	0x3e78b6dc	0.24288505
35	0x3e42546c	0.18977517
36	0x3e6a5305	0.22883232
37	0x3e6deeb6	0.23235592
38	0x3e84189f	0.25800034
39	0x3ea70598	0.32621455
40	0x3ea70598	0.32621455

obs_mean f4 [41]
0	0x3f7b86d7	0.98252624
1	0xba94e42c	-0.0011359504
2	0x3d6b130c	0.05739121
3	0x3a2d6655	0.0006614675
4	0x3c4714ae	0.0121509265
5	0x3e8bc60c	0.27299535
6	0xbd2aae3c	-0.04167007
7	0xbf3756d1	-0.71616846
8	0xbd3eb738	-0.04656145
9	0x3b9db2c8	0.004812572
10	0x3f80ba12	1.0056784
11	0x3c9c3fe2	0.01907343
12	0xbedbf823	-0.4296275
13	0xbf372808	-0.7154546
14	0x3d7f1dbf	0.062284227
15	0xbba256b1	-0.004954182
16	0x3f80ebb4	1.0071931
17	0xbcddad35	-0.02706013
18	0xbedb0b36	-0.4278199
19	0xbef67d2c	-0.48142374
20	0x3d3917f1	0.045188848
21	0x3dafd769	0.08586008
22	0x3eeec01b	0.4663094
23	0x3ca2dcfb	0.019880762
24	0x3be81f84	0.007083835
25	0xbef9b0c2	-0.48767668
26	0xbd0a2a8e	-0.03373199
27	0xbde03173	-0.10946932
28	0x3ef6bc30	0.4819045
29	0xbd72fe07	-0.05932429
30	0xbc33f4c4	-0.01098365
31	0xbc30a255	-0.0107808905
32	0xbc158826	-0.009126699
33	0x3e7187a8	0.23586905
34	0x3f012736	0.50450456
35	0x3d151e8b	0.03640608
36	0xbca57671	-0.020198079
37	0xbf214a1e	-0.6300372
38	0xbf19112a	-0.59791815
39	0x3c84b386	0.016198885
40	0x3c84b386	0.016198885
